.lr_find_5d7a32ce-5626-4b2d-85e6-3b69b809ee60.ckpt (torch, 131430 bytes, 13 tensors)

transformer_encoder.layers.0.self_attn.in_proj_weight f4 [6, 2]
00000000: afa9 b73e 207f 0abf 6465 283e c97e e03e
00000010: 2825 2dbe bc05 adbb 8100 b63e 0fbe 1abd
00000020: 5592 f43d 9762 3ebf 4f90 833e 5624 d5be
0.35871646 -0.5410023 0.16444927 0.4384673 -0.16908705 -0.0052802246 0.3554726 -0.03777891
0.11941973 -0.74369186 0.25696036 -0.41629285

transformer_encoder.layers.0.self_attn.in_proj_bias f4 [6]
00000000: 0000 0000 0000 0000 0000 0000 0000 0000
00000010: 0000 0000 0000 0000
0.0 0.0 0.0 0.0 0.0 0.0

transformer_encoder.layers.0.self_attn.out_proj.weight f4 [2, 2]
00000000: fbbd 91be 018d 6bbd 0325 e3be 05ec bbbe
-0.28465256 -0.05750752 -0.44364175 -0.36703506

transformer_encoder.layers.0.self_attn.out_proj.bias f4 [2]
00000000: 0000 0000 0000 0000
0.0 0.0

transformer_encoder.layers.0.linear1.weight f4 [2048, 2]
00000000: 3146 d9be 2508 99be 41a4 cdbe 918e e2be
00000010: e211 b83e bb88 c73e 84e7 99be b273 e03e
00000020: d42e e03e 2112 87be 26a8 723e d570 a3be
00000030: 4de8 0d3f 63ca 13bf 3145 d1bd f1dc 8ebe
00000040: 6377 05bf d87f 05bf c8f1 a53d 4917 0d3f
00000050: 2b2d aa3e 230c c93e abbc 0a3f 8c15 c33e
00000060: baa7 85be ab02 debe 31b0 763e 01f1 ed3e
00000070: 7a7b 01bf 951e a43e 142d 323f 0076 d0be
00000080: 7f43 0dbf 0385 333f 3019 983e 3add e93e
00000090: c925 f23e 5618 513e 8088 8abe af29 023f
000000a0: 5e38 c23e fdb0 e5be 49d7 8cbd c5f0 5f3d
000000b0: 4084 223f 4c0f 943e 6cfd 10bf c34d e93e
000000c0: 59da 8ebe 6be8 673d 6008 f83d 428b 0fbe
000000d0: 60bd 783e 1e9e e3be 647e 253f fcfb fc3e
000000e0: 5f44 ebbe 11cb 0fbf 27e7 5cbe a727 09be
000000f0: 169d afbe de49 f93e c08a 283f 1253 44be
00000100: c7ed 2a3e 2506 dfbe 3179 cabe 3e31 1d3f
00000110: 493d 723e f391 ddbe 2e55 5cbe 5d81 7fbe
00000120: fc40 10be e5e4 e5bd 0de5 d43d a81b 05bf
00000130: 97ed d0be 9c93 bdbd e82a 88be 2772 9abe
00000140: 2ff6 b13c 9e40 c5bb 5f99 2bbf 2648 ebbe
00000150: 834a aa3e 99d5 e2be adff 503e 321f c93e
00000160: 568b 1c3f 6ced 203f a6f4 1ebf 90b4 133f
00000170: db1c 03be 5e3d 1c3f 7f54 d7bd 538b 03bf
00000180: 6eaa be3d ec61 203f 1733 223f ed7b 23bf
00000190: 3c92 683e a826 01bf a7d9 f9be dfe2 d0be
000001a0: 5be6 073f 5b1f b7be e236 993e 790c a43e
000001b0: 45fa d7bc 4b02 b2be 73e9 32bf f6d7 323f
000001c0: ee54 61be 3a61 0fbe b95f fb3e 752e d1be
000001d0: d445 273f c767 b73e b0da b23e f8a9 00bf
000001e0: 2414 9abd 9d5c 73bd 1ecf e33e cabf f03e
000001f0: 3081 89bb 1a21 a03e 8f0e e4be 1a92 18be
00000200: f4a2 153f 6203 f4be 0a26 2f3f 3c58 a03e
00000210: 21d2 bcbe 9a17 4ebe 3ea8 e0be 4000 e83e
00000220: f19e 1dbf e911 7abc 6e2c 2dbf 60ce c23e
00000230: 0d4c 0e3f 5c0b e7bb 58b4 1f3f 0efc ef3e
00000240: a81b 133f a5e5 3bbb ff6b 013e 8592 11bf
00000250: 6e73 903e 8758 11bf 5c21 febe 0769 b73e
00000260: 790c 9e3d 350d 0cbf 1b3b 603d 3007 a7bd
00000270: 6a26 ffbe 2913 053f 2ac0 c6be d25e a6be
00000280: 5ed6 bdbe a5eb 523d 14ab 30be 4278 8c3e
00000290: 76dd 8ebd 32a5 053f 41f9 8bbd 095b bebe
000002a0: 7f5e abbe 7443 f63e 9410 a33e c9a2 e0be
000002b0: db19 30be bc27 013f 3682 883e fcc3 2fbf
000002c0: dc1a 76be 2548 873d 00a2 233e afb5 04bf
000002d0: 9e6b b8be e4b2 953e 076e d3be d3c0 b03e
000002e0: 3e40 28bf a7cd 92be 62cd 003e cf9a 1b3f
000002f0: 32f1 243f f196 a93e 8b5d 5e3e 9a01 f4be
00000300: 5568 b53e 0c55 e8bc 8648 843e 5e04 133f
00000310: 8004 d8be a242 0c3f 7992 04bf 4cae be3e
00000320: 34be 133f 113a f3be 7b80 00bf 4ed2 203f
00000330: d6ea ff3e 8ef6 243f 3c47 063f ef34 c8be
00000340: b2f5 e83d 526f 01bf 5577 06bf 318e f93e
00000350: 6586 25bf cee7 0d3f 2067 0d3f 6c5f fb3e
00000360: 65f6 913d ad67 98bd d13d 0a3f c856 f93e
00000370: 265a 9dbd 20bf d53e e5d4 763e 0233 05bf
00000380: dfde eebe e500 a2be eebf 313f 52c2 c23e
00000390: 2d86 ef3e 7ee5 193e 3004 d03e d8b6 bfbe
000003a0: 69b6 ccbe 8f13 78be dc2b 683e aece 2a3f
000003b0: 0910 193f 1005 023f e16a 143d 93ad 91be
000003c0: db31 f5be 624e 063f 173a 173f 7473 2e3f
000003d0: c46f abbe cd3a f03d 6213 973c 2d44 d33e
000003e0: 2d40 a33e 4149 993e 66fa 92be dedc c93d
000003f0: 8270 a8be 7f67 083e 1709 6abe 8636 0d3f
-0.42436364 -0.29889026 -0.40164378 -0.44249395 0.35951144 0.38971505 -0.30059445 0.4383827
0.43785727 -0.2638102 0.23696956 -0.31922022 0.5543259 -0.5773069 -0.10218275 -0.2790294
-0.52135295 -0.521482 0.08102757 0.55113655 0.33237585 0.39267072 0.54194134 0.38102376
-0.26104528 -0.4336141 0.24090649 0.46472934 -0.50579035 0.32054582 0.69600034 -0.40715027
-0.55181116 0.70124835 0.29706717 0.45676595 0.47294453 0.2041944 -0.27057266 0.50844854
0.3793363 -0.44861594 -0.06877 0.054672975 0.6348305 0.2891792 -0.5663669 0.4556714
-0.2790096 0.056618135 0.121109724 -0.14017966 0.24290991 -0.4445657 0.6464598 0.49411
-0.459506 -0.5616923 -0.21572553 -0.13394032 -0.34299535 0.4868917 0.65836716 -0.19172314
0.16692267 -0.43559375 -0.39545587 0.6140326 0.23656191 -0.43275413 -0.21516868 -0.24951692
-0.1408729 -0.11225299 0.103952505 -0.51995325 -0.40806267 -0.0925667 -0.26595235 -0.30165216
0.021723835 -0.006019666 -0.670309 -0.45953482 0.33259973 -0.44303587 0.20410033 0.39281613
0.6115011 0.6286228 -0.62092054 0.5769739 -0.12803976 0.6103114 -0.10514163 -0.51384467
0.09309851 0.62649417 0.63359207 -0.6386097 0.22712034 -0.5044961 -0.48798868 -0.4079809
0.5308587 -0.3576611 0.29924685 0.32040766 -0.026364455 -0.34767374 -0.69887465 0.6986078
-0.22005054 -0.14001933 0.49096468 -0.40855756 0.65340924 0.35821363 0.3493247 -0.5025935
-0.07523373 -0.059414495 0.44493955 0.47021323 -0.0041963086 0.31275254 -0.44542357 -0.14899483
0.5845177 -0.4765883 0.6841742 0.31317317 -0.36879066 -0.20126191 -0.4387836 0.4531269
-0.6157065 -0.015263059 -0.6764592 0.38048077 0.55584794 -0.0070509147 0.6238456 0.4687199
0.57464075 -0.0028670814 0.12638853 -0.56864196 0.28213066 -0.56775707 -0.49634826 0.35822317
0.07717223 -0.5470765 0.054743867 -0.08155668 -0.49833995 0.5198236 -0.38818485 -0.32494217
-0.37077612 0.05149426 -0.17252761 0.274355 -0.06975834 0.52205193 -0.06834651 -0.3717883
-0.33470532 0.48098338 0.31848586 -0.43874195 -0.17197363 0.50451255 0.26661843 -0.68658423
-0.24033684 0.06605557 0.15979767 -0.5183973 -0.36019605 0.29238045 -0.41294882 0.34522113
-0.65723026 -0.28672525 0.12578347 0.60783094 0.64430535 0.33122972 0.21715371 -0.47657472
0.35431162 -0.028360866 0.2583658 0.5742854 -0.42190933 0.54789174 -0.51786 0.37242353
0.577121 -0.4750524 -0.50196046 0.628209 0.49983853 0.6443871 0.52452445 -0.39102885
0.11374988 -0.50560486 -0.52525836 0.48741296 -0.64658195 0.5543183 0.5523548 0.4909624
0.07127074 -0.074416496 0.54000574 0.4869902 -0.0768321 0.4174738 0.2410465 -0.52030957
-0.46654412 -0.31641307 0.69433486 0.3803888 0.46782055 0.1502895 0.40628195 -0.37444186
-0.39982918 -0.24226211 0.22672981 0.6672162 0.5979009 0.50788975 0.03623474 -0.2845274
-0.478896 0.5246335 0.59073013 0.6814492 -0.33483708 0.11729965 0.01844186 0.41262951
0.318849 0.299387 -0.28706664 0.0985658 -0.32898337 0.1332073 -0.2285503 0.5516132

transformer_encoder.layers.0.linear1.bias f4 [2048]
00000000: 243a 9fbe 21a5 2d3f bf9c bf3e d042 4cbd
00000010: 9fba 483e 4dc5 043f c04f dfbe 478b 0fbc
00000020: 15fc c6be b9a4 a8be a99c bfbd 81d4 a73e
00000030: be5d 77bd 7acc 0ebf 37c5 d5be 7952 e8be
00000040: c02d 81be 889b 28bf f260 0f3f d0ed 293f
00000050: 30f3 1c3f d71d b1be b290 493e bc5c d8bd
00000060: 8272 29bf 6c4c 1cbf dd50 1b3f 8cc2 38bd
00000070: 75f7 fc3e e205 b83e 4ea3 3cbe e924 093d
00000080: e4a7 d3be e5c5 093f d2af 103e 9171 03bf
00000090: 8118 0b3e 87e1 563e e3ac 1d3f 6d05 3f3e
000000a0: b894 1b3e 153d dcbe 1686 e93e a7e4 6dbe
000000b0: 2f10 7fbd cddb febe ddde aabc f2b6 b43d
000000c0: df9a 47be cdd3 5f3e 061e f53e bc74 143e
000000d0: a8e3 50be d4e5 e8bc cb35 b13e a3dd fabe
000000e0: a79a 0c3d 5089 fa3e 8ff6 ddbe cc5b 233d
000000f0: 7d0d 34bf 300b 7b3e c169 05bf a50d 1ebf
00000100: 1ddf ec3e 012d ef3e 3d66 e83d 76cd 26bf
00000110: dae4 1d3f 3d96 783e 24b7 f0be c0a0 a3be
00000120: be8b 143f 2626 163d 41b8 0b3f 241f 293f
00000130: 66fd 11be 25a7 e3be c492 113f f500 8ebe
00000140: 22b8 d33d bedc 9d3e d82b 0a3f 2466 d1be
00000150: 6105 fbbd 997b 163e ad18 8c3d 8765 153f
00000160: 18da 983d 13c3 39be b7ef 73be cf1d db3e
00000170: 3ac5 ee3d 5599 dfbe 2616 cfbe 1daf f1be
00000180: 3e59 c5be f6ee 9bbe 1505 223f c845 243f
00000190: d32f e23e 124c 8fbe 2bb0 0cbf e5e6 f8be
000001a0: b5f4 d8be 3cda 303f 01db 2fbf 14f0 dc3e
000001b0: 5e72 dabe e5a0 f53e 2556 55be 5299 1fbf
000001c0: 6c2f 8d3e f762 02bf 768c 48be abc1 013e
000001d0: ba84 273f 1cf2 0abf 4b59 233f 0c88 ab3e
000001e0: 0d23 1e3f 745c 85be f2e2 02bf 3c98 83be
000001f0: 4c53 c1be a17e 10bf 289a a13e 8686 cfbc
00000200: 46ce 81be 6393 cabe e2b5 293f 3e1a 083f
00000210: 9869 433e 4715 85be 1b3b e43e ae46 15be
00000220: 5a0f a13d 86fb 82be 3835 0cbf 3f0e 233f
00000230: 970b 483d 6bcc dd3e ed7c a23d 6b68 b73d
00000240: 1bbf f0be 2d63 b43e c0ae de3e 878d 10bf
00000250: 5ff5 dcbe 1b16 123f 4b28 33bf 98fd cdbe
00000260: 463a ae3e d8b7 ec3d b4a7 1d3f 2310 96bd
00000270: ef81 28be 85af 293f a7b8 f2be bf9b dabe
00000280: 9c08 91be e1e0 94bd 9d6f ac3c 378a 033e
00000290: da8c ae3e 373f a3be 6592 02be f2c9 f23e
000002a0: b4d2 abbe c14a 89be bff7 8ebe 0390 5a3e
000002b0: 9dcb 08bf 3c84 b2be cb7d 8ebe 6e69 c13d
000002c0: 39ca 013f 6ac5 b33e 7403 0bbf 539d 473e
000002d0: b391 8f3e 8487 d83d 8cfa 59be eac1 2a3f
000002e0: cb21 923d 642d 84be 168d 75be b649 273f
000002f0: 0956 1ebe 5a1e 243f def9 b2bd 02a7 19bf
00000300: 5ccf fcbb 54a9 c6bd a99d 1cbd f4aa 113e
00000310: 1e25 a13e 0343 91bd fd49 07bf bf94 1dbf
00000320: 293e 78be a00e 643c b868 8bbe 5b1f 46ba
00000330: 40d7 01bf 6cfe 293e c7ec e63e 6571 b23c
00000340: cfd4 54be 883b 993e 469a 953d 6888 c83e
00000350: 26a6 093f 4ab4 f0bc 1673 1bbd 3135 f33e
00000360: a020 48be 5ea4 1e3e 2422 0b3f 2f2b 0ebe
00000370: 087f 2bbf f3e2 7a3d 6d51 c83e c8e2 063f
00000380: f701 213f b11d 05bf 00d4 35be edc5 a6be
00000390: 8cca b63e 8ee2 e03d 28ac 9e3e 7c7f 7bbe
000003a0: eb74 edbe f5cc fb3e c014 bdbe f3c8 ee3e
000003b0: 0c75 35be 5424 df3e 6def 863e 6288 df3d
000003c0: 567e d53e 7cf4 52bd 9ff9 99be 7733 ce3d
000003d0: ce23 d53e 9ab2 913e 9ba3 8bbd b61b fa3e
000003e0: b68d d0be b25f ed3e 1bf1 debe 090a 09bf
000003f0: 0719 273f 45ed e13d d73a 713e 4a63 c93e
-0.31099045 0.6783009 0.37424275 -0.049868405 0.1960244 0.5186356 -0.43615532 -0.008761234
-0.38864198 -0.32938173 -0.093560524 0.32779315 -0.060392134 -0.55780756 -0.41752025 -0.45375422
-0.25230217 -0.6586232 0.560073 0.663785 0.61308575 -0.34593078 0.19684103 -0.10564563
-0.6619035 -0.6105411 0.6067026 -0.04510741 0.49407545 0.35941988 -0.18421671 0.033482466
-0.41339028 0.5381759 0.1412957 -0.51345164 0.13583566 0.2098447 0.6159193 0.18654414
0.1519345 -0.43015352 0.45610112 -0.23231755 -0.062271293 -0.4977707 -0.020858223 0.088239565
-0.19492672 0.2185814 0.4787447 0.14497656 -0.20399344 -0.028429903 0.34611353 -0.4899722
0.034327175 0.48932886 -0.43352172 0.039882466 -0.7033308 0.24515986 -0.5211449 -0.6173957
0.46263972 0.46714023 0.113476254 -0.6515726 0.61677325 0.24276061 -0.47014725 -0.3195858
0.5802573 0.036657475 0.54578024 0.6606314 -0.1425682 -0.4446346 0.5686457 -0.27735105
0.10337855 0.30832475 0.5397315 -0.4089824 -0.12256885 0.14695586 0.06840644 0.58358043
0.07463473 -0.18140821 -0.23821913 0.4279618 0.11658712 -0.4367167 -0.40446585 -0.47203913
-0.3854465 -0.3045575 0.63289005 0.6416898 0.44177112 -0.27987725 -0.5495631 -0.4861366
-0.42374197 0.69083 -0.6869355 0.43151915 -0.4266538 0.47974315 -0.20833643 -0.62343323
0.27575243 -0.5093226 -0.19584832 0.12671535 0.654369 -0.5427568 0.63808125 0.33502233
0.61772233 -0.260471 -0.5112754 -0.25702083 -0.37758863 -0.5644322 0.31562924 -0.0253327
-0.25352687 -0.39565572 0.66293156 0.5316504 0.1908325 -0.25992796 0.44576344 -0.14577743
0.07864256 -0.25582522 -0.54768705 0.6369361 0.048839178 0.4332002 0.07933984 0.08955463
-0.47020802 0.35231915 0.434927 -0.56465954 -0.43155953 0.5706498 -0.6998336 -0.4023254
0.34028834 0.11558503 0.6158402 -0.073272966 -0.16455816 0.66283447 -0.47406504 -0.4269695
-0.2832688 -0.07269455 0.021049315 0.12845694 0.34091836 -0.31884167 -0.12751158 0.47419697
-0.3355919 -0.26814845 -0.2792339 0.21343999 -0.5343569 -0.34866512 -0.27830347 0.09443937
0.5069919 0.35111552 -0.54302144 0.19493608 0.28040847 0.105727226 -0.21286982 0.6670214
0.07135352 -0.2581588 -0.23979601 0.6534685 -0.15462507 0.6410881 -0.08739065 -0.6002046
-0.007715149 -0.097002655 -0.038236294 0.1422537 0.3147363 -0.070928596 -0.5284727 -0.61555094
-0.24242462 0.0139195025 -0.27228332 -0.0007557773 -0.5071907 0.1660096 0.45102522 0.021782586
-0.20784305 0.2992823 0.07304816 0.3916657 0.5376915 -0.029382844 -0.03795155 0.4750152
-0.19543695 0.15492389 0.5434897 -0.1388366 -0.6699071 0.061251592 0.39124623 0.5268979
0.62893623 -0.5199843 -0.17756653 -0.3257288 0.35701406 0.10980712 0.3099072 -0.2456035
-0.46378264 0.49179807 -0.36929893 0.46637687 -0.17720431 0.43582404 0.26354542 0.10914685
0.4169795 -0.05150269 -0.30073258 0.1006841 0.4162888 0.28456575 -0.06818315 0.48849267
-0.40733117 0.46362072 -0.43543324 -0.5353094 0.65272564 0.11031584 0.23557602 0.39333564

transformer_encoder.layers.0.linear2.weight f4 [2, 2048]
00000000: 719b 1ebc a33d 3cbb 12e7 4a3c 0d45 403c
00000010: ba35 2f3c 205c 783b a47c 06bc f082 0d3c
00000020: cd56 ac3c 9434 5d3c 69e9 373c a3a7 64bc
00000030: ca2c f03a fe50 a73a 4505 a2bc 8029 a93c
00000040: c9f3 9eba f189 893b 7b13 933c 42af 92b9
00000050: c4ab 73bc 0a5c 913c 5d5b 943c 79fe 15bc
00000060: 1d80 5e3c de8a 7fbb 9ffb 063c e515 853c
00000070: b743 ad3c fff3 39bc 12a0 b53b d1c2 aa3c
00000080: eb73 6cbc e5d8 22ba cc8c 4fbc cfac af3b
00000090: ea36 43bc ee18 b23c d42c 8f3c 6881 c93b
000000a0: b1bd 8e3c a3a5 9cbb f9c2 a53c bbe6 2c3c
000000b0: c01c 563c 76fa 50ba 9e60 883c af59 9bbc
000000c0: 0fec 983b 4e63 aabc d3a3 833c b592 87bc
000000d0: bf71 723c 91c9 91bc bf0d d63b 359c e33b
000000e0: 13ba 323c ea4f 1e3c 77d8 97bc e8bd 173c
000000f0: 19a5 893b abe9 63bc b912 51bb 2397 6fbc
00000100: 94db 39bc 14ba 31b8 c832 bd3b 72ea 38bc
00000110: 064f 973c 5f66 8f3c db03 dd38 4b22 0dbc
00000120: 0a80 963b 00fd a4bc 7f15 3eba 4771 f73b
00000130: cd9b a8bc 224c 93bc 1f36 a7b9 28c0 22bc
00000140: 1626 823c b21b 833c 491f c2bb d90d b4bc
00000150: f6a6 94bb 0e8a 88bc a432 a13c 550b 25bc
00000160: 5bd3 e83a 00ec 8c3c e00e a2bc 2532 83bc
00000170: 7d6d c639 1c52 753c b5b1 7c3b 4030 a7bc
00000180: 4a5d 0339 b05a 953c a004 bc3b 372c 59bc
00000190: be98 01bb addb 7f3c bf0c 60bb b2eb 96ba
000001a0: 62eb 23bb 9014 193a ea59 9739 52ca 91bc
000001b0: d36e a7bc 7c6a b0bc bd29 82bc 057a 9b3c
000001c0: 854e 66bb 31d8 62bc 7d4a 853c b542 a9bc
000001d0: 9e97 6cbc 62c2 be3b 8f9d 603c d3e7 abbc
000001e0: 231e 98ba 89ce a33c e714 9abc 0f26 96bb
000001f0: e805 7bbb 32df 9dbb cb80 5dbc b447 fd3b
00000200: 8761 edbb 060f 40bc 2818 b4bb ede7 32bb
00000210: cf17 1abc c685 7b3c 5b68 963c d00a d5bb
00000220: 6c2c 8c3c d8d7 92bc e11b 2a39 18ca f1ba
00000230: 8786 fcbb ba27 adbc 3fba f63b b7de 8c3c
00000240: 4c86 fabb 40f4 4c3c b168 933c 84f8 00bc
00000250: 0031 c43b 31ff d4bb 0bc0 9fbc 05db 86bc
00000260: c603 a8bc daa6 293a 30a9 f63b 2488 c63b
00000270: d465 2ebc 27fe 893c 3db7 a03c 6ea8 16b9
00000280: 0561 2cbc ff9d 453c d778 fabb b936 d9bb
00000290: bbe5 333b 5044 9a3b aeb7 7f3c b50a 3f3c
000002a0: 03a2 e0bb f9db a7bc e8a2 92bb c43d 863c
000002b0: 814e 1d3c 40ce 573b e332 9dbc 551a 34bc
000002c0: 449b 81bc ba94 133c 0c47 083c 7858 5cbc
000002d0: 0deb 5e3c fd55 a7bc 9128 3ebc 3b91 57bc
000002e0: a821 84bc 77f9 4e3c a176 e1bb c51e 87bc
000002f0: 0d7b 813c fc2a 923c 4fe3 8e3c 8460 e43b
00000300: 007d 99bc 55d1 213c f61f 51bc 0881 9fba
00000310: 9894 583b 6428 64bb 2d48 75bc 6286 5fbc
00000320: f29d 8ebc 67a0 07bb 1e9a 8c3c ee69 82bc
00000330: 85ab 943c 0e7f 7f3c f9ea a83c 3e91 ad3b
00000340: 2830 923a 5b65 3abc bf0a 05bc c8c6 623c
00000350: 370e 4b3c c510 d33b a10a 8fbc be19 24bc
00000360: 51cb 8e3c 67ab 8d3c 8b4a 8cbc cbe6 5d3c
00000370: 3f3e 87bb ddb6 053a 3b06 8d3c 6608 c1bb
00000380: 012a 27bc 9882 d23b 0a2e 6e3c e2a0 493c
00000390: 80f0 3abb 7af7 f6b9 b274 0b3c 1cfd aa3c
000003a0: a161 17bc 4749 a0bc 8c60 b8bb 294c 19bc
000003b0: fe8e 3dbc c111 22bc da3b 843a 4cb6 e8bb
000003c0: 8611 803c 53f7 7abc f360 163c 4b11 1b3c
000003d0: d82c 59bc 0946 9abb ab79 e3bb b92b 02bc
000003e0: 1b46 58ba 136f 0cbb b4b8 9fbc 574a debb
000003f0: 4c80 54bc cb02 093b 2ecb 33bc a941 22bb
-0.009680615 -0.0028723262 0.012384193 0.011735213 0.010693962 0.0037896708 -0.008208428 0.008637175
0.021037484 0.013501305 0.011225083 -0.013955983 0.0018323895 0.0012765226 -0.019777903 0.020649672
-0.0012127097 0.004197352 0.017953625 -0.00027977867 -0.014872495 0.017744083 0.018109972 -0.009154909
0.013580349 -0.0038992683 0.008238702 0.016245792 0.021150453 -0.011349677 0.0055427635 0.020844849
-0.014431934 -0.00062121294 -0.012667846 0.0053611766 -0.011914948 0.021740403 0.01747743 0.0061494596
0.017424436 -0.0047804876 0.020234572 0.010553057 0.013068378 -0.0007971892 0.016647633 -0.018963663
0.0046668123 -0.020799305 0.016069328 -0.016549448 0.014797627 -0.01779631 0.0065324004 0.0069461116
0.010908621 0.009662608 -0.018535836 0.009261586 0.0042005894 -0.013910691 -0.0031902029 -0.014623436
-0.011343855 -4.2373387e-05 0.005773876 -0.011286365 0.018470298 0.017504869 0.00010538819 -0.008614133
0.0045929 -0.020140171 -0.0007251128 0.0075513455 -0.020582104 -0.017980639 -0.00031893046 -0.009933509
0.015887301 0.016004417 -0.0059241396 -0.02197926 -0.004536505 -0.016667392 0.019677468 -0.010073503
0.0017763184 0.017202377 -0.019782484 -0.016015122 0.00037847078 0.01497319 0.003855807 -0.02040875
0.00012527886 0.01823172 0.005737856 -0.013255171 -0.001977488 0.01561634 -0.0034187285 -0.0011514334
-0.0025012125 0.0005839551 0.00028867956 -0.01779667 -0.020438587 -0.02153515 -0.015889043 0.018979082
-0.0035142016 -0.013845489 0.01627087 -0.020661691 -0.014440445 0.005821512 0.01370944 -0.020984566
-0.0011605661 0.019995945 -0.018808795 -0.0045821737 -0.003830308 -0.0048178667 -0.013519476 0.007729495
-0.007244292 -0.011722332 -0.0054960437 -0.0027298883 -0.0094050905 0.015351718 0.018360307 -0.006501533
0.017111026 -0.017925188 0.00016222849 -0.001844707 -0.0077064666 -0.021137107 0.0075295265 0.017196042
-0.007645404 0.012509406 0.017994257 -0.007871751 0.0059872866 -0.0065001477 -0.019500753 -0.016461859
-0.020509612 0.0006471701 0.007527493 0.0060587097 -0.010644395 0.016844822 0.019618625 -0.0001436786
-0.010521178 0.012061595 -0.0076437998 -0.006628838 0.0027450162 0.0047078505 0.0156077575 0.011660268
-0.006855251 -0.020490633 -0.0044749863 0.016386874 0.009601236 0.003292933 -0.019189304 -0.010992606
-0.015821107 0.009007627 0.00831772 -0.013448827 0.013605845 -0.020426745 -0.0116063515 -0.013157184
-0.01612933 0.012632719 -0.0068805967 -0.016494164 0.015805745 0.017842762 0.017442374 0.0069695134
-0.018736362 0.009876569 -0.012763968 -0.0012169192 0.0033047553 -0.0034814114 -0.014970821 -0.013642879
-0.017409299 -0.0020694972 0.017163333 -0.015919652 0.018148193 0.015594257 0.020619856 0.0052968552
0.0011153268 -0.011376704 -0.008120238 0.013841338 0.012393526 0.006441208 -0.017461123 -0.010015903
0.017430933 0.017293645 -0.017125389 0.013543795 -0.0041272934 0.0005100796 0.017214885 -0.0058908937
-0.010202886 0.0064242594 0.014537344 0.012306424 -0.0028524697 -0.0004710516 0.008511709 0.020872645
-0.009239585 -0.019566191 -0.0056267437 -0.009356537 -0.0115697365 -0.009891928 0.0010088638 -0.0071018096
0.015633356 -0.015317756 0.009178388 0.009464572 -0.0132553205 -0.004708056 -0.006941994 -0.007944995
-0.00082501926 -0.002142851 -0.019497253 -0.0067837643 -0.0129700415 0.0020906206 -0.010973735 -0.0024758375

transformer_encoder.layers.0.linear2.bias f4 [2]
00000000: 3706 deba 6104 a339
-0.0016939108 0.00031093045

transformer_encoder.layers.0.norm1.weight f4 [2]
00000000: 0000 803f 0000 803f
1.0 1.0

transformer_encoder.layers.0.norm1.bias f4 [2]
00000000: 0000 0000 0000 0000
0.0 0.0

transformer_encoder.layers.0.norm2.weight f4 [2]
00000000: 0000 803f 0000 803f
1.0 1.0

transformer_encoder.layers.0.norm2.bias f4 [2]
00000000: 0000 0000 0000 0000
0.0 0.0

fc1.weight f4 [1, 2]
00000000: b6ac bd3d 474a 1e3f
0.092614576 0.6183209
