new_weights.pth (torch, 947508 bytes, 13 tensors)

transformer_encoder.layers.0.self_attn.in_proj_weight f4 [162, 54]
000000 5d a1 62 bb 36 e4 75 bb cb 75 4d bb d7 53 ae 3d
       -0.0034581043 -0.0037520058 -0.0031350728 0.08512085
000010 fb e3 18 3e a8 43 09 be c6 90 cb bd df bd 7e 3d
       0.14930718 -0.13404715 -0.09939723 0.062192794
000020 85 95 06 3e e5 4f c2 bd d2 aa 09 3e 48 ff f1 bd
       0.13142975 -0.09487895 0.13444069 -0.11816269
000030 c5 00 c2 3d 90 d2 18 be bf 4c d4 3d 22 07 fb 3d
       0.09472803 -0.14924073 0.10366201 0.1225722
000040 e4 5a 00 3e 45 65 00 3e 32 5f e3 3d f1 b4 d9 bd
       0.12534672 0.12538631 0.111021414 -0.10630215
000050 f9 49 14 3e d2 64 12 3e 83 8e e1 3c 74 2c 12 be
       0.14481343 0.14296272 0.027533775 -0.1427477
000060 9a 0d 1f bd 97 49 28 3e 3f a8 1b 3e dd 14 6e bd
       -0.03883133 0.16434322 0.152009 -0.058125366
000070 34 25 f7 bc 0a 16 10 3e e6 ea cb bc 24 18 99 bb
       -0.030169107 0.14070907 -0.024892282 -0.0046720672
000080 15 c5 25 3e c5 84 08 be b9 6f c7 3d 71 0c 1e 3e
       0.16188462 -0.13331898 0.09738106 0.15434434
000090 34 a1 3a bc 03 17 23 be 24 ef 22 be 91 a4 4b 3d
       -0.011390973 -0.15926747 -0.15911537 0.04971749
0000a0 6a 23 34 bd 27 a5 c9 3d c7 18 e1 3d 43 e6 ec bd
       -0.043979086 0.098459534 0.10991054 -0.115673564
0000b0 d3 73 e9 bd d9 92 e5 3d 42 69 49 3d 27 07 c8 3d
       -0.11399045 0.112096496 0.049172647 0.09766989
0000c0 32 bd 14 be 9c 8e 09 be cd 13 ec bd 42 a9 0d 3e
       -0.14525297 -0.13433307 -0.11527214 0.13834098
0000d0 7c b7 78 bd f2 13 b6 3d de 56 3b bd 20 aa 8d bd
       -0.06072186 0.08890523 -0.04573714 -0.069172144
0000e0 af dc 3e 3d 04 4b c0 3d f0 91 9e bd e2 eb 21 be
       0.04659718 0.09389308 -0.07742679 -0.15812638
0000f0 e9 62 d7 bd a9 e1 3d bd 59 fe d2 ba 64 8e 74 bd
       -0.105169125 -0.046357784 -0.001609753 -0.059706107
000100 02 d6 d3 bd c8 4f 09 3e ea e4 90 bc 2a c3 97 3c
       -0.10343553 0.1340934 -0.01768728 0.018525679
000110 b6 1e 9e bd e2 27 d1 3c 36 df 60 bd e6 b9 53 bd
       -0.077207014 0.025531713 -0.05490037 -0.05169096
000120 de e3 16 be bc 0f e9 bc 80 60 d1 bd 6e 39 70 bd
       -0.14735362 -0.028449886 -0.10223484 -0.05864852
000130 3e 9d 23 bd b3 9c 81 bd 87 f5 c5 bd 11 9c 0c 3e
       -0.03994488 -0.06328716 -0.09665971 0.1373141
000140 eb 07 23 be d3 29 ef 3d 3b 27 e8 bd 36 2f 88 3d
       -0.15920989 0.11677899 -0.113356076 0.0664963
000150 90 17 08 3e ef 24 8e bc 45 de 21 3e 1f 2b 3a 3c
       0.13290238 -0.017351596 0.15807445 0.01136282
000160 6a 24 0e 3e ee c1 e5 3d 9d 71 2a 3e bc 83 be 3c
       0.13881078 0.1121863 0.16644903 0.023256175
000170 2a 9b 8c 3d 1e ff ef bd 7d 23 03 3e 52 23 18 3e
       0.06865533 -0.117185816 0.12806506 0.14857224
000180 66 2a 51 3b 99 fa 0b be 8e df 94 bd 4c bd b5 bd
       0.003191614 -0.13669814 -0.07269202 -0.08873996
000190 9b 6e d9 3d 06 11 e8 bd dd c3 e8 bd a6 0a 19 3e
       0.106167994 -0.11331372 -0.11365483 0.14945468
0001a0 6a 4c 9b 3d 8a f9 7c 3d b5 e6 0b 3e 0c 39 02 be
       0.07582934 0.061761416 0.13662226 -0.12717074
0001b0 3f 10 27 be 4c 55 22 be df fe d8 bd 39 c4 ed 3d
       -0.16314791 -0.1585285 -0.10595488 0.11609692
0001c0 86 54 ec 3d fa 65 16 be 5f ed b6 3d ca 7f cc 3d
       0.11539559 -0.14687338 0.08931994 0.09985311
0001d0 3d 7f a4 3b 4a 6b fb bd ed d9 9b 3d 42 80 1e be
       0.005020051 -0.12276323 0.076099254 -0.15478614
0001e0 13 3c 1e be 07 19 e1 3d 33 93 a7 bd e9 9a 18 3e
       -0.15452604 0.10991102 -0.08182373 0.14902844
0001f0 6d a9 1e 3e 8a d8 ac 3d ef 3c a7 bd f1 61 5d bd
       0.15494318 0.08439739 -0.08165919 -0.054048482
000200 fc 47 85 3d 88 d6 b1 3d 04 38 9e 3d 49 72 dd bd
       0.065078706 0.08683497 0.07725528 -0.10812814
000210 a5 71 79 bb 98 4a 50 3d e3 ee 19 bc e2 50 65 3d
       -0.0038062122 0.05085239 -0.009395334 0.05598534
000220 e4 be e0 3d 38 66 13 bd 8b 22 f8 3d 1d 34 19 3e
       0.109739095 -0.035986155 0.121159635 0.14961286
000230 32 86 e1 bd b5 87 c7 bd cc b8 9f bd 92 a6 10 3e
       -0.11011924 -0.09742681 -0.07798919 0.14126042
000240 a0 44 09 be 09 3a 9f 3c c7 f2 f1 bd cd 9d b1 bc
       -0.13405085 0.019436853 -0.11813884 -0.02168169
000250 f2 d9 44 bd f7 00 1d be 4e 4c 26 be 6c 6b 6f 3d
       -0.04805941 -0.153324 -0.16240045 0.058452055
000260 a8 23 b0 3d 3d ff 0b be 47 8f 84 bd 35 48 da bc
       0.08600551 -0.13671584 -0.064726405 -0.02664576
000270 aa b1 18 be c1 79 14 be 78 f9 1b bd 86 16 88 bd
       -0.14911523 -0.1449957 -0.03807971 -0.06644921
000280 f1 b4 1f be 71 98 bb bd e5 53 65 3d c3 bb b5 bd
       -0.15596367 -0.09159935 0.05598821 -0.08873703
000290 be 16 b0 bd e6 19 83 3d 8c 69 15 bd cf 59 14 3e
       -0.08598088 0.06401424 -0.03647761 0.14487384
0002a0 79 bd 03 be 53 a2 71 bc 16 74 1c be 27 3d cb bd
       -0.12865247 -0.014748174 -0.15278658 -0.09923773
0002b0 6a a5 4a bd 5f e8 c6 3d 52 b1 f5 3d c5 0a 92 bc
       -0.049474157 0.0971229 0.11996712 -0.017827401
0002c0 6b eb d6 bd c7 c2 59 3b 88 77 12 be 94 e8 c1 3d
       -0.10494121 0.0033227669 -0.1430341 0.09468189
0002d0 d3 cf 9d bd 74 b0 11 be 57 c2 88 3d bb 4d 83 bd
       -0.07705655 -0.14227468 0.066776924 -0.0641131
0002e0 26 fe 16 3d 14 a5 87 bd aa d8 9d 3d 1e 17 d7 bc
       0.03686347 -0.06623283 0.07707341 -0.02625614
0002f0 32 60 8c bd 8f 94 b9 bd 07 df 21 3d a7 3a ec 3d
       -0.06854285 -0.090615384 0.039519336 0.115346245
000300 a7 16 7f bd 1c 85 1c 3d 94 7f 7b bd 58 13 05 3d
       -0.062277462 0.03821288 -0.061400965 0.03248915
000310 b2 00 42 bb 20 df f8 3d b6 48 f2 3d 4d ea 03 3e
       -0.0029602465 0.12151933 0.11830275 0.12882347
000320 1c ac f1 3d ea 83 82 3d 55 c4 28 3d 35 8e e7 bd
       0.118004054 0.06372817 0.04120286 -0.11306421
000330 f6 38 c6 bd 19 3e 96 3d d0 f9 d1 3c cf 8c d2 3d
       -0.09678833 0.07336063 0.025631815 0.10280763
000340 b0 b4 29 3b a6 8b f6 3d 62 06 0b be c7 3b 26 3c
       0.0025895052 0.120383546 -0.13576654 0.010146088
000350 4b 91 50 3d 85 19 ba bc b1 b7 06 3e 4a 0b ee 3d
       0.050919812 -0.022717247 0.1315601 0.11623247
000360 9b bf a8 bd 97 41 05 3d ca 2e b9 bd 22 39 32 3b
       -0.08239671 0.032533254 -0.090421274 0.0027194698
000370 69 28 f9 3d f4 6c ec 3d 0e 22 f8 bd 1c ea 29 be
       0.12165911 0.11544219 -0.121158704 -0.16593212
000380 1c 9e e9 3d ff 03 1e 3e 5e 87 bf bb b5 51 85 bb
       0.1140711 0.15431212 -0.0058449944 -0.004068578
000390 c8 e8 a6 3c 4e f0 db bd 68 e9 f2 bd b3 d2 a9 3d
       0.02037467 -0.10739194 -0.11860925 0.08292141
0003a0 79 41 0f 3e 6c e2 7d bd c7 8b 0a be e1 30 89 3d
       0.1398982 -0.06198351 -0.13529883 0.06698776
0003b0 2a 8e 3c 3d 43 96 6d bc be 4d 0c be 10 06 ff 3b
       0.046034016 -0.014501157 -0.13701531 0.007782705
0003c0 d3 96 4d bd c4 7d 98 bc 02 b9 07 be 6e 82 e2 bd
       -0.050192665 -0.018614657 -0.13254169 -0.11060034
0003d0 7c 84 1c 3e db fd 15 be 09 95 b1 bd 74 0f e4 bd
       0.15284914 -0.1464762 -0.08671004 -0.1113576
0003e0 13 ba 23 be 26 71 c7 3d 11 9c 0e 3e ee 5b 3e 3d
       -0.1598895 0.09738378 0.13926722 0.04647439
0003f0 14 a9 ff 3d 04 df 56 3d dc 83 8c 3c 0e e5 23 3e
       0.12483421 0.052458778 0.01715272 0.16005346

transformer_encoder.layers.0.self_attn.in_proj_bias f4 [162]
000000 57 80 14 b9 1f ae ca b7 58 be 6d 38 22 28 ad b8
       -0.0001416219 -2.4161358e-05 5.6682475e-05 -8.256758e-05
000010 8b ba 54 b9 6d 8a ed 38 02 ff be b8 bf 98 28 38
       -0.00020287388 0.000113268245 -9.107405e-05 4.0196577e-05
000020 bf 5d c2 b7 39 a4 c8 38 d1 62 ae b8 02 dd 17 b8
       -2.3170256e-05 9.567332e-05 -8.3153725e-05 -3.6207035e-05
000030 10 18 07 38 88 57 68 b6 ab 86 0d 39 2a 09 c7 b8
       3.2208918e-05 -3.4621644e-06 0.00013496976 -9.4907664e-05
000040 bf 3e c9 38 ab 9e 36 b8 ab fd 03 b9 ee 60 0e 38
       9.596114e-05 -4.3539952e-05 -0.00012587632 3.394571e-05
000050 d5 ae 00 b9 f1 3a 98 b8 0b 7c ed b8 47 d8 9c 38
       -0.00012272161 -7.2589035e-05 -0.000113241455 7.4789445e-05
000060 2b fe 12 39 af 72 af 37 fb 20 be 38 0d d3 7a 38
       0.0001401833 2.091503e-05 9.066049e-05 5.98012e-05
000070 b1 97 f8 38 f2 39 05 38 3d d4 a5 b6 74 53 54 b7
       0.00011853816 3.1763637e-05 -4.942091e-06 -1.2655615e-05
000080 40 0b 5a b8 f0 3d a4 b8 d1 6e 4d b7 8e 99 43 38
       -5.1985728e-05 -7.831666e-05 -1.2244754e-05 4.6634632e-05
000090 24 e6 0a 37 35 92 77 36 a2 7e 59 38 e6 8b e2 b4
       8.279025e-06 3.6890972e-06 5.1854768e-05 -4.219757e-07
0000a0 9a b0 26 38 f4 92 3f 38 5e 73 c1 b7 8b 18 41 39
       3.9741957e-05 4.567481e-05 -2.3061115e-05 0.00018415057
0000b0 aa d1 33 b3 3a 7e 96 b6 e6 8b 69 38 d0 7d c6 b7
       -4.1867374e-08 -4.485043e-06 5.568182e-05 -2.3662025e-05
0000c0 fc fa 04 39 b7 ea cd b7 f8 21 16 b9 c4 5c 25 b8
       0.00012682 -2.4547202e-05 -0.00014317769 -3.942546e-05
0000d0 5b a8 fd b8 c3 a2 c3 38 20 46 e6 b2 49 f0 ec 31
       -0.00012095339 9.328641e-05 -2.6807413e-08 6.8958212e-09
0000e0 05 c2 91 33 76 62 af 32 53 f1 57 b2 b5 c4 57 33
       6.7873806e-08 2.0417456e-08 -1.2569518e-08 5.0237492e-08
0000f0 74 67 f7 33 90 37 94 b3 cc 72 0b b3 cb a2 bf b3
       1.1520652e-07 -6.901894e-08 -3.2467867e-08 -8.9237425e-08
000100 13 5e 92 33 2c 9f 12 34 a6 21 78 b2 6e e2 73 32
       6.815767e-08 1.3655216e-07 -1.4443151e-08 1.4195946e-08
000110 2e ec 93 32 ec 7f d2 31 12 da 61 30 c9 8e a3 33
       1.7220454e-08 6.1263474e-09 8.216442e-10 7.6162515e-08
000120 c3 e4 1f 33 93 c9 96 31 63 09 fd b3 b6 01 a2 b2
       3.722813e-08 4.388491e-09 -1.1782938e-07 -1.886006e-08
000130 23 20 35 af e0 03 d4 b3 a7 36 01 34 ca 32 e4 34
       -1.6473271e-10 -9.872724e-08 1.2033944e-07 4.2505263e-07
000140 26 0a 2c 34 7b 46 7b b4 89 bf ee b3 5b 62 52 34
       1.602244e-07 -2.3401837e-07 -1.1117579e-07 1.9593556e-07
000150 9c ad 79 b0 f2 5b 5a 33 7a cf 99 b3 c4 cb 3c b3
       -9.0832386e-10 5.0840704e-08 -7.1623575e-08 -4.3957485e-08
000160 b6 2d 37 b3 87 c2 d0 b3 76 10 89 b4 8c 25 20 34
       -4.264958e-08 -9.721139e-08 -2.5530215e-07 1.491482e-07
000170 d1 dd 67 b3 fe d8 e5 33 41 74 d2 33 e7 e3 f8 33
       -5.398562e-08 1.0703114e-07 9.8000335e-08 1.1589855e-07
000180 6d bd 2d 33 1a 9e ed b0 e2 50 84 b2 3f 5b 93 b2
       4.0451983e-08 -1.7288955e-09 -1.5403604e-08 -1.7154546e-08
000190 8b dc 0d b2 8e ef 34 b3 6d c6 ac 32 60 ec 8c b3
       -8.257426e-09 -4.212739e-08 2.0113669e-08 -6.5622544e-08
0001a0 f2 56 95 34 55 05 b3 b2 49 78 a6 b4 43 58 99 34
       2.7816674e-07 -2.0840767e-08 -3.1007428e-07 2.856269e-07
0001b0 2f af bc b8 f9 44 b5 38 d7 4d 5d 39 d2 9b 34 38
       -8.997169e-05 8.6436e-05 0.000211052 4.3060463e-05
0001c0 82 74 7f b9 dc 94 35 38 9e 81 71 b8 73 6d a3 b8
       -0.00024362098 4.32924e-05 -5.7579593e-05 -7.792832e-05
0001d0 df e7 bb b2 4f 84 ec b8 9f bd b0 38 1f 64 92 39
       -2.1875108e-08 -0.00011278001 8.427654e-05 0.00027921886
0001e0 59 08 92 b9 fb 46 62 b8 b7 2f b8 b8 6c d6 12 37
       -0.0002785351 -5.3948705e-05 -8.782691e-05 8.752202e-06
0001f0 20 65 05 38 1b e9 de 38 a1 ed ea b6 21 5a 13 39
       3.180385e-05 0.00010629204 -7.001407e-06 0.00014052588
000200 11 1e a8 39 e4 b4 7b b9 a5 0d 18 b9 e1 9c fc b7
       0.00032065858 -0.00024004612 -0.00014500933 -3.0113793e-05
000210 b2 0c 81 38 79 15 d0 37 7f a9 40 39 93 73 09 b9
       6.153564e-05 2.4805531e-05 0.00018373689 -0.00013108393
000220 38 c7 cb 38 f3 49 33 39 b1 64 7f 38 ea 7c 03 b9
       9.716902e-05 0.00017098318 6.0890514e-05 -0.00012539668
000230 ad bd bb b8 b6 0e a1 b9 67 46 1e b9 8a 26 ea b8
       -8.952185e-05 -0.00030719273 -0.00015094281 -0.00011165168
000240 af 0b 09 39 13 da e3 b8 2a 12 86 37 26 3a 01 b9
       0.0001306969 -0.00010864823 1.5982503e-05 -0.0001232406
000250 a7 d0 83 38 8e c3 ce 38 31 7f 02 b9 82 bb ba 38
       6.285431e-05 9.85927e-05 -0.00012445149 8.904097e-05
000260 27 0e ad 39 5c 2a 3d 38 07 6f 8f 36 69 18 0d b9
       0.00033007676 4.510056e-05 4.2746574e-06 -0.00013455901
000270 7c ed 99 b8 81 c1 02 b5 56 98 57 39 49 e7 d7 b8
       -7.3398434e-05 -4.871036e-07 0.00020560747 -0.00010295079
000280 06 7c 04 b8 4f fc ef 38
       -3.158676e-05 0.00011443404

transformer_encoder.layers.0.self_attn.out_proj.weight f4 [54, 54]
000000 66 fa be bb ca 43 d7 3c 19 81 5c bd 0b f0 9f 3d
       -0.0058281897 0.026277442 -0.053834055 0.078094564
000010 2a 71 ec 3b fa 42 e2 3d 52 d2 bf 3d 12 05 44 3c
       0.0072156386 0.11047931 0.09366287 0.0119640995
000020 f2 79 c2 3d 76 96 9e 3d 04 78 04 be 20 1f b0 3c
       0.094959155 0.07743542 -0.12936407 0.021499217
000030 ad 8a fd 3d ff 27 27 3d 25 f4 e8 3c a2 82 72 3d
       0.12379966 0.040809628 0.02843673 0.059206612
000040 8a 39 c0 3d 4e f4 7a 3b 52 e6 1e bc d0 30 c2 3d
       0.09385975 0.003829259 -0.009698467 0.094819665
000050 5f 36 f6 bd 50 cc 3d bc d6 e7 b4 bc e2 3d 86 3d
       -0.12022089 -0.011584356 -0.022083204 0.06554772
000060 a1 a0 1c 3c 82 2b 04 be d6 84 5f 3c d2 7d d0 3d
       0.009559781 -0.12907222 0.01364251 0.10180248
000070 68 02 e4 bd 34 56 05 3e 31 d8 3c bd 63 be 9e 3b
       -0.111332715 0.13021165 -0.046104614 0.004844473
000080 76 5a 65 3b 1f b5 e6 3d 24 69 03 bd 05 d2 d9 3d
       0.0034996546 0.11265015 -0.03208269 0.10635761
000090 e6 10 cc bd 75 c5 ec 3d 1d a2 f9 3d 1b f0 65 3d
       -0.099641606 0.115610994 0.12189124 0.056137186
0000a0 0f b8 45 3d cf c9 cc 3d 2c 6a a2 bd 8f 84 0c bc
       0.048271235 0.099994294 -0.07930407 -0.008576526
0000b0 6f 4b 9c bc 34 ac 07 be 22 1d a9 3b d7 f1 bc 3d
       -0.019078938 -0.13249284 0.0051609436 0.09225815
0000c0 2f 9e 67 3d 23 27 40 3d a0 42 4d 3b e8 a4 3c 3d
       0.05654734 0.046912324 0.003132023 0.046055704
0000d0 3d e5 d9 3d 38 49 01 be 22 3b 0c 3c b3 98 95 bd
       0.10639427 -0.12625587 0.00855902 -0.07304516
0000e0 6f 56 0e bd df 7f e4 bd 38 5c 22 bc 8b 29 fa 3c
       -0.0347504 -0.11157202 -0.009909682 0.030537387
0000f0 3d 78 82 3d af 33 a3 3c 84 af 6a bd 93 a9 d7 3c
       0.0637059 0.019922106 -0.05729629 0.026325976
000100 e5 66 d6 3d b0 65 26 3d 02 1c 86 bd 7b 5d 99 bd
       0.10468844 0.04062432 -0.06548311 -0.07488533
000110 7f 6f 1e bd aa d7 ef bd 24 6e a0 bd 76 aa 10 bd
       -0.03868055 -0.117110565 -0.07833508 -0.035318814
000120 f6 72 e1 bc 96 73 d4 3c 97 44 03 be fe 7f 02 3e
       -0.027520638 0.025934022 -0.12819134 0.12744138
000130 8f d5 d4 3c 26 a2 53 3d 70 be 57 3d 44 04 91 bd
       0.025980739 0.05166831 0.05267185 -0.07080892
000140 d0 d4 2c 3d a8 3c 3a 3d 3b bc 28 3d e7 e3 fd bc
       0.04219514 0.045468003 0.041195136 -0.030992461
000150 3a c2 75 3d 74 f3 48 bd be 56 b0 3d d9 65 82 bd
       0.059999682 -0.0490603 0.08610295 -0.06367082
000160 d1 47 dd 3d 89 c5 a3 3d c9 b3 d6 bd 0b 65 93 bc
       0.108047135 0.07996661 -0.1048351 -0.017992517
000170 af 0f e2 bd 8f b4 f8 3c e3 82 a0 bd 7d 12 d7 3d
       -0.11038148 0.030359535 -0.07837465 0.10501573
000180 e1 e6 94 bd 24 21 d1 3d f0 f8 02 3e a0 fb 91 bd
       -0.07270599 0.10211399 0.12790275 -0.07128072
000190 00 a1 2e 3d 2e bf 93 3d fb d7 ca 3c 77 af bd bb
       0.04263401 0.07214199 0.02476119 -0.0057887393
0001a0 11 77 03 3e 67 50 0a 3e 10 bc de bd 0c 44 6b 3d
       0.12838389 0.13507234 -0.10875714 0.05743794
0001b0 12 46 5c bc e0 41 cb bd 5b 05 db bc f3 50 3c bd
       -0.01344444 -0.09924674 -0.026735952 -0.045975637
0001c0 b5 57 c2 3d ea 9f 96 39 08 3a cb bc 75 d6 28 bd
       0.09489385 0.00028729375 -0.024807945 -0.041220147
0001d0 47 87 01 be b8 f2 ab bd 27 d6 ff 3d 78 64 c7 3d
       -0.1264926 -0.08395904 0.12492018 0.0973596
0001e0 4b 37 40 bd dc bf e1 3d 53 81 72 3d 51 83 ba bc
       -0.04692773 0.110229224 0.059205364 -0.022767695
0001f0 f3 84 6d bd 3a 69 aa 3d ae 2a fd 3d c0 a7 09 bc
       -0.05798812 0.083208516 0.12361656 -0.008401811
000200 33 77 11 3c b1 a4 1d 3c 0e c4 ad 3d 0c 78 8d 3d
       0.008878517 0.009621785 0.0848466 0.06907663
000210 ce 9d 6c bd ac f1 11 bd 03 f9 16 3d 44 e2 19 3d
       -0.05776768 -0.035630867 0.03685857 0.0375693
000220 ff 47 94 bd 06 7b 03 3e 40 2d bc 3d e5 99 02 be
       -0.07240295 0.12839898 0.09188318 -0.12754019
000230 7e 7d 95 bd 39 00 dd bd 79 61 f5 ba a5 e8 25 3d
       -0.07299326 -0.10791058 -0.0018721066 0.04050507
000240 8e 50 ef 3c b4 4f ed 3a 5f c4 56 bd 3c e4 8c 3d
       0.029213216 0.0018105418 -0.052433368 0.0687947
000250 e5 28 4e bb 29 5d a4 3d 82 3d 07 3e 8f e5 00 bd
       -0.003145748 0.080255814 0.13207057 -0.031468924
000260 0e 8b ec 3d 3c 09 b7 bd c9 54 a3 3d aa a4 e8 3b
       0.1154996 -0.08937308 0.07975156 0.0070997076
000270 46 f7 09 3e 09 c8 b6 3c 31 fd f3 3d 91 fa a0 3d
       0.13473234 0.022312181 0.11913527 0.07860292
000280 29 43 3e 3d 83 91 53 bd 16 47 aa 3d 80 54 e1 bd
       0.046450768 -0.051652443 0.0831434 -0.11002445
000290 23 f9 90 bd 6d fd 98 bc e4 15 b6 3d 2f 01 c3 bd
       -0.07078769 -0.01867553 0.08890894 -0.0952171
0002a0 87 10 90 bd 85 48 aa 3d a5 0f 08 bd 98 bc 83 bc
       -0.07034402 0.08314613 -0.033218045 -0.01608114
0002b0 87 a0 04 be 3d 68 88 3d 21 00 c5 3d 0d 84 e2 3d
       -0.12951861 0.06660507 0.09619165 0.11060343
0002c0 53 5c a7 3d 16 aa 30 bc b4 a1 56 3d 67 5f 2b 3c
       0.08171906 -0.010782739 0.052400306 0.010459757
0002d0 ea 87 5d 3d 7c 45 e2 bc 0b e0 85 3c a5 e4 f3 bd
       0.054084696 -0.027621023 0.016342184 -0.11908845
0002e0 4c 08 af bb f1 f6 74 bc 9e bc 14 bd b5 8a a8 3d
       -0.0053415652 -0.014951454 -0.036312692 0.08229581
0002f0 b5 54 c6 bb 0b b2 d7 bd 7f d0 c0 3d 02 76 b4 3d
       -0.0060525783 -0.10532006 0.094147675 0.08811571
000300 57 08 e8 bc 46 81 b8 3c b3 13 a6 3d b5 8a db 3d
       -0.02832429 0.02252258 0.08109226 0.10719816
000310 a7 cc 12 3d 72 42 8f 3d 21 a8 5d 3d 41 8b db 3d
       0.035839703 0.06995095 0.05411542 0.1071992
000320 00 b1 f5 3d d7 92 d7 bc 23 af 7b bb 25 09 ef bd
       0.11996651 -0.026315136 -0.003840395 -0.11671666
000330 ed 8c 07 3e bf 0d 1c bd c4 cc 28 bd 02 f3 b9 3d
       0.13237353 -0.038099047 -0.041210905 0.09079553
000340 a0 68 05 3d 9f d9 d9 3d 74 d8 7e 3c 9b cc 96 3d
       0.03257048 0.10637211 0.015554536 0.07363244
000350 16 ff d9 bd f3 fc fe 3d 2a c5 f6 bd 95 7b bc bc
       -0.10644357 0.1245059 -0.12049325 -0.023008147
000360 83 54 06 be db e0 03 3d a0 05 7f 3d 88 f4 93 3d
       -0.13118176 0.03219686 0.062261224 0.07224375
000370 24 bb bd bd ae a9 65 3a fb 24 b6 bc 34 53 9c bd
       -0.0926421 0.0008760941 -0.02223443 -0.07633057
000380 51 1b d9 3a 2a 6d d9 bd 57 e0 76 bd a5 7d bf bd
       0.0016563927 -0.106165245 -0.06027254 -0.09350137
000390 ec ab 1e bd cf 78 fc bd d5 76 ef 3d 9d 29 66 bd
       -0.038738176 -0.1232773 0.11692587 -0.05619203
0003a0 51 69 ee bd df b5 02 bd e3 07 08 3e 3f a4 1d 3d
       -0.11641181 -0.031911727 0.13284259 0.038486715
0003b0 db 35 cb 3c d1 f1 17 3c 9d cb 65 bc 38 93 a9 bd
       0.024805954 0.009273962 -0.014025596 -0.08280033
0003c0 21 da 35 3d 49 b7 8f 3d 96 da 00 3d c3 b9 5b bb
       0.044397477 0.07017381 0.03145846 -0.003352747
0003d0 be 82 e0 bd 8a 8a 8f 3d 58 7d 60 b8 ca 5e 07 bd
       -0.10962437 0.07008846 -5.3522497e-05 -0.033049382
0003e0 02 8c fd 3d 0f 3e 0a be 5d b8 69 bd 8a 7d 4d 3d
       0.1238022 -0.13500236 -0.05706059 0.05016855
0003f0 85 22 c0 3d d5 ef ec bb 3f b7 d5 3d 65 29 f1 bd
       0.09381584 -0.0072307386 0.10435342 -0.117754735

transformer_encoder.layers.0.self_attn.out_proj.bias f4 [54]
000000 23 8d fd b8 75 41 45 37 61 98 68 35 0e f9 e7 b8
       -0.00012090269 1.1757355e-05 8.6648475e-07 -0.000110613284
000010 03 f9 97 38 61 be 75 38 cd f1 d5 b8 23 86 6b 38
       7.246623e-05 5.8589856e-05 -0.000102016704 5.615329e-05
000020 92 39 26 b8 62 ea 04 b7 c8 64 cc b8 a5 30 dd 38
       -3.96311e-05 -7.922385e-06 -9.74625e-05 0.00010547162
000030 72 3c 1d 37 f0 28 47 39 ce 31 0b b9 2a 8c c2 b8
       9.372003e-06 0.0001899337 -0.00013274627 -9.2767485e-05
000040 b2 4f 94 37 ae e7 10 36 31 86 c4 38 25 23 8f 37
       1.7680086e-05 2.1592527e-06 9.3710034e-05 1.7063294e-05
000050 a4 fd a3 b8 78 ed 00 b9 ed 2d 89 b7 23 15 c2 b7
       -7.81969e-05 -0.00012295495 -1.6353059e-05 -2.3136445e-05
000060 5a 81 13 b9 98 b7 80 b8 65 f7 47 39 ef 07 bf 37
       -0.000140672 -6.1377126e-05 0.0001907028 2.2772669e-05
000070 52 30 c6 b9 ff b8 29 b9 21 c8 9d 39 37 e6 03 b7
       -0.00037801504 -0.00016186012 0.0003009448 -7.8618095e-06
000080 10 e5 01 b9 a8 fa ae b9 74 c4 6f b8 30 e4 57 b8
       -0.00012387731 -0.0003337462 -5.7165e-05 -5.147251e-05
000090 47 89 0d 39 7d 53 68 b8 0b 82 7e 39 46 8a e3 b8
       0.00013497948 -5.5390865e-05 0.00024271772 -0.00010849959
0000a0 ea 10 76 38 11 26 82 38 34 7d 7e 38 ea b1 84 39
       5.8666723e-05 6.2059735e-05 6.0674924e-05 0.00025309558
0000b0 f6 5a 88 b8 96 05 e4 39 e2 c5 31 b5 e1 78 be 38
       -6.501928e-05 0.0004349171 -6.6225596e-07 9.0824215e-05
0000c0 c3 ec a1 b8 4f 00 02 3a 9e 0f 36 b8 79 76 03 39
       -7.7211786e-05 0.00049591524 -4.3406726e-05 0.00012537268
0000d0 7b 7d c9 37 c0 52 1c 38
       2.4019499e-05 3.7270365e-05

transformer_encoder.layers.0.linear1.weight f4 [2048, 54]
000000 9d 04 58 3d 72 39 50 bd 22 87 b3 3c ad cd 7e bd
       0.052738775 -0.050836034 0.021915022 -0.062207866
000010 63 39 10 3d fa b1 49 3d c5 6b cb 3d 62 c7 b9 bd
       0.03521098 0.049241997 0.09932665 -0.090712324
000020 cb 63 9f 3d bc 7f 09 be d4 f7 07 3c dc c7 fd bd
       0.07782706 -0.13427633 0.008298833 -0.12391636
000030 a9 21 fa bc 73 0e 5d bd d8 a8 ed 3b 48 e0 dd 3d
       -0.030533629 -0.053968858 0.0072527938 0.10833794
000040 d7 11 e9 bd 2e 88 f6 bc 6c b8 83 bd e8 61 d0 bd
       -0.11380356 -0.030094232 -0.0643166 -0.10174924
000050 17 22 8c 3d cb b1 b3 bd 97 c9 ec bc 46 99 08 3e
       0.068424396 -0.08774146 -0.02890472 0.13339719
000060 34 77 81 3d df ac a2 3d 64 1d 8e 3d 5e af a1 39
       0.06321564 0.07943129 0.069391996 0.00030838972
000070 b4 6b 07 3e 43 6e 02 3d 14 cb 54 3d cd 5a f0 bd
       0.13224679 0.031843435 0.051951483 -0.11736069
000080 67 8f b3 bb bb b0 1a 3d 6c f0 ec 3d 62 df c5 3d
       -0.0054797414 0.0377662 0.11569294 0.096617475
000090 44 9e 4a bd 3a 28 52 bd 9a d1 a5 bd 58 d2 c0 3c
       -0.04946734 -0.051307894 -0.08096619 0.0235378
0000a0 06 25 b2 bd c4 ee fb bc ce 9c ea 3d a3 9c 04 3e
       -0.08698468 -0.0307535 0.11455689 0.12950377
0000b0 f7 cf 00 3e 13 72 fa bc 9b 09 ca bd 20 21 57 bd
       0.12579332 -0.030571973 -0.09865113 -0.052521825
0000c0 79 8a c1 3b e7 6d a3 bc 2b dd 9d 3d 35 26 26 3d
       0.0059064 -0.019949866 0.077082 0.04056378
0000d0 bf 32 b5 bd da db cf 3d bc a6 fa 3d 0a 07 02 bd
       -0.0884757 0.10149355 0.12238833 -0.031744994
0000e0 f3 18 b6 bd fb 58 9d bc a4 37 32 3d 4c 79 b5 bd
       -0.088914774 -0.019207468 0.043510094 -0.08861026
0000f0 3e 5c 45 bd b4 e2 54 bd 44 00 a3 bd 03 7e fe bd
       -0.048183672 -0.051974013 -0.07959035 -0.124263786
000100 63 56 da bc 28 52 9f 3d 1c 0b 6e 3d da f1 09 3e
       -0.02665252 0.07779342 0.058116063 0.13471165
000110 51 b4 5f 3d 71 33 bc 3c f8 96 93 3d b0 16 5e 3d
       0.054615323 0.022973748 0.072065294 0.054220855
000120 d0 50 ab 3a 6a 7d a3 3d c6 87 59 3d 13 e3 f0 bd
       0.0013070349 0.07982905 0.053108 -0.11762061
000130 ae 0c bb 3d 82 74 d7 3d a2 dd 06 be 98 27 75 3c
       0.09133278 0.10520269 -0.13170484 0.014963053
000140 5a 2b e0 3d ab a7 aa 3d 6a 07 d9 3d 3d 57 da bd
       0.10945769 0.083327614 0.10597117 -0.10661171
000150 24 ab 09 3e 6f f4 09 3e 98 b8 97 bb ce be c5 bd
       0.13444191 0.1347215 -0.0046301596 -0.09655534
000160 29 0e 84 3d 0d f8 ee bd 79 9c c8 3d 3e be ef 3d
       0.06448013 -0.11668406 0.0979547 0.11706208
000170 ff aa ae bd fd 00 01 3e 57 ff d2 3c b8 7f 86 3d
       -0.08528709 0.12598033 0.025756521 0.06567329
000180 a5 5e 03 3e ca 30 bc bc e7 28 9f bd 6a a0 92 bd
       0.12829073 -0.022972483 -0.077714734 -0.07159503
000190 87 1b eb bd 77 cb 97 3d ea 3e 28 bd 85 a5 fd bd
       -0.1147986 0.07411855 -0.041075625 -0.12385086
0001a0 0a 9a 7d bc 69 d8 95 bd 6e f4 d7 3d 0e fa 75 bd
       -0.01547862 -0.073166676 0.10544668 -0.060052924
0001b0 9a 46 05 3e 1e b3 07 be 06 a2 cf 3d 26 12 d0 bd
       0.13015214 -0.13251922 0.101383254 -0.101597115
0001c0 80 67 58 3d f8 7b 04 be 8e 8e ee bd 6d c2 08 3d
       0.05283308 -0.12937915 -0.11648284 0.033388544
0001d0 22 ea 90 3d 42 ce 72 bd fc bd fa 3d c9 02 c3 bd
       0.07075907 -0.059278734 0.12243268 -0.095220156
0001e0 05 67 42 3d 74 a4 8a 3d c1 7f 9d bd ba 6d d9 3b
       0.04746153 0.06769648 -0.07690383 0.006635395
0001f0 cd 5e be 3d a0 a9 f1 bc 7d 3f 07 be 0c 19 f3 3d
       0.092954256 -0.029499829 -0.13207813 0.11870012
000200 97 80 40 bc d8 8d a6 bd 47 7c f6 3d 2f 56 98 3d
       -0.011749408 -0.08132523 0.12035423 0.07438313
000210 19 88 28 bd 4b 14 ab bc 3a 79 d6 bd e5 f2 29 bd
       -0.041145418 -0.0208837 -0.10472341 -0.041491408
000220 2e ed ce bd 19 e7 d4 3d 61 63 04 be c8 3a e9 3d
       -0.10103832 0.10395641 -0.12928535 0.11388165
000230 08 69 0a bd a1 48 e6 bd 6b 6e 3f 3d b0 e6 48 bd
       -0.03379157 -0.112443216 0.046736162 -0.049048126
000240 2f 00 01 3e 4b df a6 3c 06 a1 c6 3d e7 2c 88 3d
       0.12597726 0.020370146 0.096986815 0.066491894
000250 38 7b c9 bc a2 1e f8 3d 60 ac ed 3c 76 27 7f 3d
       -0.024594888 0.12115218 0.029012859 0.062293492
000260 22 7e cb bd 35 cd 76 3c a6 f9 11 3d 9c 8b b8 bd
       -0.09936167 0.015063574 0.035638474 -0.090110034
000270 02 53 07 be fd f4 ec 3d 48 c6 7b bd 9e 2e 5f bd
       -0.13215259 0.11570165 -0.061468393 -0.054487817
000280 5b 37 d2 3b 44 19 e1 3d a9 13 0e 3d 1b bd fe bd
       0.0064152903 0.10991147 0.034686718 -0.12438413
000290 3c 3a 51 bd 6c f6 be bd e0 a8 2d bd ce 32 fd bd
       -0.051080927 -0.09324345 -0.04239738 -0.12363206
0002a0 7f 37 6b bd 3b 4e 79 3d 20 f3 84 3d 9a 7d e4 bd
       -0.057425972 0.060865622 0.06491685 -0.11156769
0002b0 bb d0 a6 3d 05 33 28 3c 7c aa 98 bd 1b b8 aa 3d
       0.08145281 0.01026607 -0.07454392 0.083358966
0002c0 8b ed 43 3d a8 59 1c 3d 3c 31 60 bd 8d b5 f6 bd
       0.04783396 0.03817144 -0.054734454 -0.12046347
0002d0 c8 0a 68 bd c8 8b 50 3d 7b 54 0e bc 97 fd f5 bd
       -0.056650907 0.050914556 -0.008687134 -0.12011259
0002e0 f4 ac 88 bd 8c c5 f8 3d 94 80 16 3d b7 e4 5d bd
       -0.06673613 0.12147054 0.036743715 -0.054173198
0002f0 f2 55 5f 3d f5 96 8e bd dd 59 b2 bd 5e eb e1 3d
       0.054525323 -0.069623865 -0.08708546 0.11031221
000300 73 ca 01 be a7 76 fb 3c ed 1d 74 3d 95 27 a2 bd
       -0.12674884 0.030696226 0.059598852 -0.07917706
000310 47 57 8d bd 1f 95 b5 3d 58 67 a6 3d 35 f7 bc 3d
       -0.069014125 0.08866333 0.0812518 0.092268385
000320 3d 38 0b 3e 43 33 8f bd 75 40 96 3b 4f d7 9a bc
       0.13595672 -0.06992199 0.0045853206 -0.018901495
000330 84 49 5e 3d 2a 0b c7 bd dd 7e e3 bc ec a2 65 3c
       0.05426933 -0.09718926 -0.027770454 0.014015894
000340 6c ed c9 bc 33 21 f5 bd 62 0c 3a bd d9 dc 7b 3d
       -0.024649344 -0.11969223 -0.045421965 0.061489914
000350 f7 ae 84 bd 44 cc e0 bd ed 3a 49 bd e4 ef fd 3d
       -0.064786844 -0.109764606 -0.04912846 0.12399271
000360 84 fa bb bd c3 c8 fc 3c 55 a2 91 3c 8c 3a f1 3d
       -0.091786414 0.03085745 0.017777601 0.11778745
000370 ed c6 2e 3c 93 c9 f5 bd 5b 9b f4 bd 5f d3 d8 bc
       0.010667545 -0.12001338 -0.11943694 -0.026467977
000380 ef 27 6f bd b0 95 01 be 38 35 31 bd 99 49 9b bd
       -0.058387693 -0.12654757 -0.043263644 -0.07582397
000390 24 f3 d8 bd f0 de 03 3e 13 1c 05 be cf 5e e8 bd
       -0.105932504 0.12878013 -0.1299899 -0.11346208
0003a0 1a 20 a9 3d 3d a1 39 bd ea 16 58 3d 97 a3 5a 3d
       0.08258076 -0.045319784 0.052756228 0.053378668
0003b0 58 ed 54 3d 88 6c b6 3d 27 c5 a1 bc 9b 34 ac bd
       0.05198416 0.089074194 -0.01974733 -0.08408471
0003c0 41 ab 4b bd e7 97 ea 3d e3 d2 a1 bd 76 2a 05 be
       -0.049723867 0.11454754 -0.079015516 -0.13004479
0003d0 e3 18 a6 3d b4 c7 9d bd f2 47 c5 bd dd 75 f2 3d
       0.081102155 -0.07704106 -0.09632863 0.11838887
0003e0 1a 75 9f 3d 9b 69 7d bc 16 c8 2f bc a6 b8 51 bd
       0.07786007 -0.015467073 -0.010728857 -0.051201485
0003f0 db 68 48 3d 7a 6d b0 bd fe 36 d1 3d 21 66 d7 3d
       0.048928123 -0.08614631 0.10215567 0.105175264

transformer_encoder.layers.0.linear1.bias f4 [2048]
000000 9c 81 f3 3c ba df f3 bd af 9d 05 be 5d 48 81 bd
       0.029724889 -0.11907907 -0.13048433 -0.0631263
000010 4b a0 fe bc 5d 33 74 bd 23 5c 28 3d be e9 21 3b
       -0.031082293 -0.059619296 0.041103493 0.0024705972
000020 53 c7 07 bd e8 42 09 be 64 f7 51 bd 85 f3 9e 3d
       -0.033149075 -0.13404429 -0.05126132 0.077612914
000030 5c 41 7f 3d 46 aa d0 3c 4b f3 be 3d db 8d 01 3d
       0.06231819 0.025471818 0.09323748 0.031629425
000040 01 78 07 3e 58 4b e7 bd f9 7d bc bd fd 57 01 3e
       0.13229372 -0.112936676 -0.09203715 0.12631221
000050 b4 bf 46 bc d1 4a e2 3c 88 d8 d6 3d 7a 4f a1 bd
       -0.0121306665 0.027623566 0.10490519 -0.07876487
000060 f3 85 cd 3d eb 78 a0 3c e5 6d 8e 3d d2 20 cd 3d
       0.100353144 0.019588908 0.069545545 0.100160256
000070 a7 b6 08 3e ad 07 e2 3d c4 ae 94 3d 44 4d c0 bc
       0.13350926 0.1103662 0.072598964 -0.023474343
000080 df f4 df bc 15 8f bd bc cb a6 ab 3d c4 ce af 3d
       -0.027338443 -0.023139516 0.083814226 0.08584359
000090 2c 0f 91 3d bc b4 5c bd d8 51 a1 bd 9c cc c7 3b
       0.07082972 -0.0538833 -0.078769386 0.0060973894
0000a0 65 20 e7 bd 1e 0a 36 3d 0f 7f 53 bd 78 97 a7 bc
       -0.11285476 0.044443242 -0.051634844 -0.020457968
0000b0 e1 65 ce bd 96 29 c5 bd 24 15 db bd d8 f5 7c bd
       -0.100780256 -0.096270725 -0.10697392 -0.061757892
0000c0 35 1c a8 bd b9 34 28 3d ad fe 00 3d 9c 4f e7 bd
       -0.08208505 0.041065905 0.031492878 -0.11294481
0000d0 ef 14 47 bd 47 67 91 3d a9 01 f0 bd 33 5a ac bd
       -0.04860395 0.07099777 -0.11719067 -0.08415642
0000e0 4f 09 78 bd 08 d3 f8 39 f5 f7 bb 3d 13 97 0c 3d
       -0.060555752 0.00047459477 0.091781534 0.034323763
0000f0 3d 03 af bd e1 a7 80 bd d2 25 3e 3d 39 0e 7c 3d
       -0.085455395 -0.0628202 0.046422787 0.061537
000100 9d 30 4d bd d9 44 98 bd b2 db 1f 3d 43 01 47 bd
       -0.05009519 -0.07435007 0.039027877 -0.048585188
000110 0f 2f 11 3d 51 3e ea bc 2e 0d f3 bd bd 22 83 3d
       0.03544527 -0.028594168 -0.11867748 0.0640311
000120 96 7d a2 3d 31 cb bd bd a4 04 cc 3d a1 0c 19 bd
       0.0793411 -0.09267271 0.09961823 -0.03736556
000130 d7 96 fa bd 6c 00 bd 3b 62 3f f3 bd e4 8a ab bd
       -0.12235802 0.0057678726 -0.11877324 -0.08376101
000140 bd 3a 5e bb ec 87 c6 3d 4d 5c d6 3c 98 b8 da 3d
       -0.0033909522 0.09693894 0.02616706 0.1067974
000150 f6 5d 9f 3d 9f 2d a1 3c 06 97 ab 3c 28 11 03 be
       0.077815935 0.019675074 0.020946037 -0.12799513
000160 07 22 79 bc e4 20 2d 3d 92 69 07 ba 50 16 f0 bd
       -0.015205867 0.042267695 -0.00051655725 -0.11723006
000170 ff 3a cb bd f5 8b d5 bb 91 f6 11 bd 49 97 25 3d
       -0.09923362 -0.0065169283 -0.035635535 0.04042748
000180 6d 76 15 bc b3 94 86 bd ea d0 95 3d f1 6f dd bd
       -0.009122473 -0.06571331 0.07315238 -0.10812367
000190 37 d9 35 bc 0e 89 7a bd 10 7f 7e bd f2 6a 12 3d
       -0.011099151 -0.06116586 -0.062132895 0.035746522
0001a0 b7 90 ee bd 0a 0a fc bd 9c 05 c4 bd 29 5b d4 3c
       -0.11648696 -0.12306602 -0.095713824 0.025922375
0001b0 0e 4a fe 3d c0 a8 22 bd 90 17 5b 3d c8 21 ae 3d
       0.124164686 -0.039711714 0.053489268 0.08502537
0001c0 1b 0c 0f 3d 0e 31 b3 3d fc cd 6f 3d 76 e0 c6 bd
       0.034923654 0.08749591 0.05854605 -0.09710781
0001d0 f6 67 b2 3d 9b db 09 bd 80 41 02 be 23 bc df bd
       0.08711235 -0.033656698 -0.12720299 -0.10924556
0001e0 e9 33 61 3d 9e 17 ba bd 05 62 7d 3c 6f 5b f6 bd
       0.054981146 -0.09086536 0.015465264 -0.12029158
0001f0 82 85 55 bd 21 f4 24 bc 0e db bd 3c d9 ce 8f 3d
       -0.052129276 -0.0100679705 0.023175742 0.07021875
000200 85 31 60 bd 46 f4 fb bd 2a 26 e4 bd 39 66 99 3d
       -0.054734726 -0.12302451 -0.11140092 0.074902005
000210 e6 63 b2 3d 20 02 a1 bd a0 53 b6 bd 76 5f a2 3d
       0.0871046 -0.078617334 -0.08902669 0.07928364
000220 77 ac 94 bd 45 c2 80 3d e8 3d 0c 3d b2 15 4c 3d
       -0.072594576 0.06287054 0.034238726 0.049825378
000230 7e 41 b6 3d 45 15 ce 3d 4d c9 25 3b 2e 46 04 be
       0.088992104 0.100626506 0.0025296987 -0.12917396
000240 36 eb 2c 3d 3c bd 67 3d 59 59 81 bd b8 65 00 be
       0.042216502 0.056576952 -0.0631587 -0.12538803
000250 a7 fb 70 bd f2 54 df 3d 2d da 45 3c 8a 9a cf 3d
       -0.058833744 0.10904874 0.012075943 0.10136898
000260 18 3a 03 be 97 49 93 bc e9 1c 63 bc c8 69 04 bd
       -0.1281513 -0.017979426 -0.013861873 -0.032327443
000270 66 9d 07 be 03 c3 06 3d 3a ba 09 bd 41 b8 26 bc
       -0.13243636 0.03290082 -0.033624865 -0.0101757655
000280 c6 3e 6b 3d 71 a6 02 be 55 e1 cf 3d 32 7a 77 3d
       0.057432912 -0.12758805 0.101504005 0.06041927
000290 00 41 84 3d 2c 78 ca bd d1 33 0a 3e 93 2a 8b bd
       0.0645771 -0.09886202 0.13496329 -0.0679523
0002a0 e7 07 fd bd 6e 8f b5 3d ce b7 bd bd 71 3a 85 3d
       -0.12355023 0.08865248 -0.092635736 0.065052874
0002b0 0c a4 c6 bd 57 b3 11 bd 50 f7 b4 bd c2 f6 e6 3d
       -0.09699258 -0.035571422 -0.088362336 0.11277534
0002c0 c6 f6 fc bd c9 06 e1 3d 59 65 0b bc 46 dc d7 bc
       -0.12351756 0.10987622 -0.00850805 -0.026350152
0002d0 ef 6d 8a 3d 23 32 b3 3b 84 34 22 3d 28 f4 78 bd
       0.067592494 0.0054686232 0.039600864 -0.06077972
0002e0 f7 38 da 3a 9e bb e6 3d 98 09 09 bd 4b d8 bf 3d
       0.0016649057 0.11266254 -0.033456415 0.093674265
0002f0 0a ee 12 3d 38 8a c2 3d 99 44 fb bd 74 6c cb 3d
       0.035871543 0.094990194 -0.12268943 0.09932795
000300 c2 7c 82 bd ca b0 b8 3d d2 ee e0 bd 52 d5 07 3e
       -0.06371452 0.09018095 -0.10983051 0.13264969
000310 92 f8 3c bc 56 8f 85 3d 12 1f 07 bd c0 6e ab 3b
       -0.011533873 0.0652148 -0.032988615 0.0052317083
000320 f8 ee af 3c e0 2d f9 3d 07 c0 fa bd b9 c8 b1 3d
       0.021476254 0.12166953 -0.122436576 0.08680863
000330 44 2d ba 3d ed 88 a9 bd 07 7d 02 be 84 db 15 3d
       0.09090665 -0.0827807 -0.12743007 0.0365863
000340 2f a0 ec 3d 43 b2 07 be 2b 66 53 3d 56 64 fb bd
       0.1155399 -0.13251595 0.051611107 -0.12274997
000350 31 38 37 bd d8 be d6 bd 4f 98 7e bd 72 73 e6 bd
       -0.044731323 -0.10485619 -0.06215697 -0.11252488
000360 6e c4 bc 3d 18 4d 2e 3a fb 87 e9 3d 99 0f 50 3d
       0.092171535 0.0006649061 0.11402889 0.050796125
000370 f2 1c 09 3e bb 64 a7 3d 66 8b 1e 3b 56 e5 b2 bd
       0.13389948 0.0817351 0.0024191975 -0.087351486
000380 c1 67 a5 3d 9b 6a 76 3d bc 34 6a 3d d5 41 02 3e
       0.0807643 0.06016026 0.057179198 0.12720425
000390 b9 19 92 ba ee 7b 92 bd 88 00 be 3b 00 93 d1 3d
       -0.0011146582 -0.07152544 0.005798403 0.10233116
0003a0 91 20 eb bd 1f b7 cc 3d db 46 c1 3d a2 fd 4a bd
       -0.11480821 0.09995865 0.09437343 -0.04955829
0003b0 3d e2 b8 bd 27 94 c5 3d 1e 97 0a 3c 5b 81 9b 3d
       -0.090275265 0.096473984 0.008458881 0.07593032
0003c0 9e e0 9d 3d 30 d2 c1 3d fb 0e 3d 3d fe 11 f7 3c
       0.07708858 0.09463918 0.046156865 0.030159947
0003d0 97 9a f6 bd 9a ba 2c bd 46 9a b6 bd 64 46 be bb
       -0.120412044 -0.042170145 -0.08916144 -0.005806731
0003e0 61 ec af bd 8f 70 c5 3d f6 df ea bc 88 e9 e0 3d
       -0.085900076 0.096406095 -0.028671246 0.109820426
0003f0 e0 3e ef bd c9 0b 66 bd 88 62 ee 3d dd b9 94 3c
       -0.11681914 -0.056163583 0.11639887 0.018155033

transformer_encoder.layers.0.linear2.weight f4 [54, 2048]
000000 24 25 85 bc f4 ec 95 3c 5c 94 27 bc 9b f2 a2 bc
       -0.016253062 0.018301465 -0.010228243 -0.019891074
000010 33 fc 5f bb d7 cf 76 3b fa 94 2e bc ad 96 50 3c
       -0.0034177422 0.0037660503 -0.010655636 0.012731236
000020 98 e4 fc 3b 3e f9 22 bc 3c 58 aa 3c 8b b5 84 3c
       0.00771768 -0.009947119 0.020794027 0.016199848
000030 ba 0f b7 3b 8c c8 4b bc b1 ae aa 3c 8b de 40 bc
       0.0055865915 -0.012437951 0.020835252 -0.011771808
000040 b5 15 a7 bc 12 5a 22 bb c4 3c 24 3a 48 2c bc bb
       -0.020396093 -0.0024772924 0.00062651583 -0.0057425834
000050 ed 1c 0b bc 7f 48 5d bc bc 53 e2 bb 20 0b 3c bc
       -0.008490783 -0.013506054 -0.0069069546 -0.011477262
000060 64 33 3a bc b3 b5 7f 3c 8c 2d a7 bc 7d c1 83 bc
       -0.011364792 0.015607285 -0.02040746 -0.016083473
000070 58 4e a4 3c 16 68 88 bc d2 2b 34 3b 00 5a c2 3b
       0.020056888 -0.016651195 0.002749194 0.005931139
000080 6b bd c5 3b 35 eb 5d 3c 55 1b 82 bc 2c d4 57 bc
       0.0060345433 0.013544847 -0.015882174 -0.013173144
000090 2a c4 56 bc 3c dc 06 3b fe b9 28 bb b6 63 d0 3b
       -0.013108293 0.0020578047 -0.0025745626 0.0063595427
0000a0 b5 8e 22 3c 6a f1 d3 b7 79 c1 25 3c 40 42 9f 3b
       0.009921719 -2.5265577e-05 0.010116928 0.0048601925
0000b0 7e c4 9c bc a5 68 03 bc 95 dc 19 3b 32 0d c3 bb
       -0.019136664 -0.008020555 0.0023477424 -0.0059525007
0000c0 0f 50 46 3c 06 9d 9c bc 43 1e a4 38 58 c6 ab bc
       0.012104048 -0.019117843 7.825766e-05 -0.020968601
0000d0 35 ed ba bb 25 db 18 bc e2 55 9b 3b 7e aa 8f bc
       -0.005704547 -0.009329592 0.0047404626 -0.017537352
0000e0 c7 b5 99 3b 8b c2 8b 3c 41 ad a5 3c f5 ee b1 3c
       0.004690859 0.017060539 0.020224215 0.021720389
0000f0 52 8e fb 3b b9 c3 2d 3b 00 9e b1 bb 71 01 88 bc
       0.007676878 0.0026514365 -0.0054204464 -0.01660225
000100 42 17 67 3c 39 6d 8e 3c 3b 0c 88 3b a7 88 b1 3c
       0.014104666 0.017386066 0.0041518486 0.021671606
000110 14 61 54 bb f9 6c 12 bc 5a 93 d0 3b cf 21 74 bc
       -0.0032406496 -0.008937114 0.006365222 -0.014900639
000120 1b ca 71 bc e0 1c 94 bb 07 ef 55 3b a6 9a 97 bc
       -0.014757658 -0.0045200437 0.0032643692 -0.01850636
000130 fe 8d 8a 3c 08 e2 1f 3c df 8c 60 3c 5e c4 85 3b
       0.01691341 0.00975848 0.013705461 0.0040822467
000140 24 ed ab bc ed 8a 9b bc 73 91 67 bb e0 8e 99 bb
       -0.0209871 -0.018987143 -0.0035334497 -0.0046862215
000150 92 c5 9b bc cc 2d cb 3b 6e 91 95 3c c2 dd f9 ba
       -0.019015107 0.006200528 0.018257823 -0.0019063281
000160 3e 95 a8 3c 4d 8a 7d 3c 75 08 ab bc cd 9b 9a bc
       0.020578977 0.015474868 -0.020878056 -0.01887312
000170 80 4a 8a 3c 77 9a 91 bc ed f1 60 3c 8f 52 40 3c
       0.016881227 -0.01777385 0.013729555 0.0117384335
000180 ec c8 b1 bb 36 c6 17 bc df c2 0b bc d6 e7 b4 bc
       -0.005425563 -0.009263566 -0.008530348 -0.022083204
000190 44 14 58 3c b2 19 b5 bc 3d 1b 2e 3c 2b e6 60 38
       0.013188425 -0.022106979 0.010626611 5.3620122e-05
0001a0 1d 39 84 3c ef bd 22 3b d2 da b7 3a e6 a0 96 3c
       0.016140515 0.0024832448 0.0014027006 0.01838727
0001b0 d4 50 8d 3c 0d 51 a1 bc 58 5a af 3c 83 ce 94 3b
       0.017250456 -0.019691968 0.021405384 0.0045412197
0001c0 c2 15 2a 3c 02 91 ab bc 9b 7a aa 3c c5 bc 46 bc
       0.010381164 -0.020943169 0.020810416 -0.012129967
0001d0 36 2f 97 3c 23 03 0a bc c3 df d8 bb aa 62 fa 39
       0.01845513 -0.008423599 -0.0066184714 0.00047757226
0001e0 89 e7 ac 3c d0 c7 9f bc 83 c1 a0 bc ef 8c 87 3c
       0.021106498 -0.019504458 -0.019623524 0.016546695
0001f0 16 50 7b bb 2f db 9e bc 52 51 58 bb f9 5b d2 bb
       -0.0038347295 -0.019391624 -0.0033007455 -0.0064196554
000200 f3 75 a1 bc 18 1a a6 3c 4a 64 1e bc 37 58 ed ba
       -0.019709563 0.020276114 -0.009667465 -0.0018107955
000210 7d ca 90 3c 32 ae 95 3c 59 78 4d 3b cc 78 2a bc
       0.017674679 0.01827154 0.003135225 -0.010404777
000220 e6 de 17 bc 54 54 a6 bc 57 bf ad bc e2 7e 05 3c
       -0.009269452 -0.020303883 -0.021209402 0.008147927
000230 ea fe b0 3c 18 92 d8 bb 2c ff 2d bb 93 a2 1b 3b
       0.021605927 -0.0066092126 -0.00265498 0.0023748025
000240 18 18 6c 3c 99 fd 72 3c 0f 0f 5f 3c a7 d4 0c 39
       0.014410041 0.01483097 0.01361443 0.0001343066
000250 e9 94 32 3c 35 4c cc bb 0f 6a d1 bb a7 f6 af 3c
       0.010899761 -0.0062346705 -0.006390817 0.021479918
000260 52 02 81 3a 2d 7c 3b bc 7a 30 4b bc 14 1c b1 bc
       0.000984261 -0.01144318 -0.012401694 -0.021619834
000270 d5 4f 31 bc 1c 53 43 bb 5a c9 37 3b 57 2f b1 bc
       -0.010822256 -0.0029804176 0.00280436 -0.021629019
000280 ae 76 8d 3c be 44 9a 3c a0 85 9c bc b2 af af 3a
       0.017268505 0.018831607 -0.019106686 0.0013403802
000290 b3 0e c7 3b b8 bd 76 3c e6 5e 8a bc e0 34 25 bc
       0.0060747503 0.015059881 -0.016890954 -0.010083407
0002a0 7e 7d f3 bb 53 14 6f 3c 22 d5 c5 bb 55 b3 f0 3b
       -0.0074307313 0.014592248 -0.0060373703 0.007345597
0002b0 c9 51 1d 3c eb a7 8b bc dc 62 99 bb d1 91 86 3c
       0.009602019 -0.017047843 -0.0046809744 0.016426953
0002c0 dd 54 68 3c 39 78 d6 bb 6d 43 e6 bb b7 8e 8f 3c
       0.014180389 -0.0065450934 -0.0070270807 0.017524106
0002d0 da 5b 4c 3c 26 2b 42 bc 29 31 5e bc ce a9 ac 3b
       0.012473071 -0.011851108 -0.013561525 0.0052692657
0002e0 ff 2b d9 3b 57 5d 79 bb 13 3b 00 bc 4c f4 1b b8
       0.006627559 -0.003805002 -0.007826584 -3.71824e-05
0002f0 cf f4 5b bc 72 07 06 bc 21 3b 2a 3c 0f 23 b5 bb
       -0.013425066 -0.008180486 0.010390074 -0.005527861
000300 ea da 6f bc 4f 74 fc 3a ab 37 72 3c d3 80 5b bc
       -0.0146395955 0.0019260737 0.01478378 -0.013397413
000310 dd 7d 0a 3c e2 b8 8c bc c4 5b 64 bb 97 3b 4a 3b
       0.00845286 -0.017178003 -0.0034844736 0.0030858272
000320 e0 22 a7 bc 89 4b c9 3b 3c ac 8a 3c 40 2c a2 bc
       -0.020402372 0.0061430377 0.01692783 -0.01979649
000330 5e 2e 85 3c 6b a7 8c 3c 20 81 ac 3c 09 a5 a9 bc
       0.016257461 0.017169675 0.021057665 -0.020708578
000340 3d 2e 67 bc e6 b6 74 3b a4 3e 82 3b fc 3a 88 bc
       -0.014110145 0.0037340461 0.0039747525 -0.016629688
000350 4b c6 45 3c dd 0d bc 3b d6 2a 34 3c 00 64 8f bc
       0.0120712025 0.0057389573 0.010996541 -0.017503738
000360 53 28 1f bc 42 a8 98 bc 62 34 50 bc 0a 17 32 3b
       -0.009714204 -0.01863492 -0.012707802 0.0027174377
000370 b9 66 95 3c 88 ae c9 3b 3a 21 5a 3c dd d7 09 bc
       0.018237459 0.006154839 0.013313586 -0.008413282
000380 30 53 74 bc f3 11 41 3b 81 45 22 3c 0c a9 37 bb
       -0.014912412 0.0029460161 0.009904266 -0.0028024344
000390 22 0b 0e bc f2 79 8b bc 33 94 94 3c c5 6c 88 3c
       -0.008669646 -0.017025921 0.018137073 0.016653428
0003a0 2d c9 33 3c 05 7b 46 bb 01 c6 92 3c f4 f0 01 3b
       0.010973257 -0.0030285728 0.017916681 0.0019827457
0003b0 46 d7 af bc ff 02 9a 3b 1d b4 48 bc 59 59 e0 bb
       -0.021464955 0.004700064 -0.012249974 -0.0068465886
0003c0 94 2a 8e 3c 36 4f 41 3c a0 43 69 bc ce c7 af bc
       0.017354287 0.0117986705 -0.014237314 -0.021457579
0003d0 ce 0d 44 3b 19 5a 6b bc c9 8a 48 bc c4 9f a9 3b
       0.0029915455 -0.014364743 -0.01224012 0.0051765162
0003e0 e9 90 3f bb 37 b1 2a bc 41 d0 ab bb 6b 83 27 bc
       -0.002923066 -0.010418228 -0.0052433317 -0.010224204
0003f0 f9 84 a7 3c 0c 06 52 bc a8 98 88 bc 45 dd 89 3c
       0.020449148 -0.0128188245 -0.016674355 0.016829142

transformer_encoder.layers.0.linear2.bias f4 [54]
000000 88 dc 5c 3c e9 c9 88 bc 54 95 7b 3c 1d a4 ab bc
       0.013480313 -0.01669784 0.015355427 -0.020952279
000010 92 14 d2 bb 5c 40 b3 3c ab c9 c5 ba 20 b5 5b bc
       -0.0064111436 0.021881275 -0.0015090009 -0.013409883
000020 93 10 59 bc a7 16 dc bb 60 39 25 3c d3 85 07 3c
       -0.0132485805 -0.0067165676 0.01008448 0.008271652
000030 f4 c2 06 bb 42 13 88 bc ae 70 8d 3c 80 c5 b2 bc
       -0.0020562978 -0.016610745 0.017265644 -0.021822691
000040 36 36 90 3c c7 ee 9d bb 3f 43 97 3b a8 4e a0 bc
       0.017603975 -0.0048197242 0.0046161707 -0.019568756
000050 c3 14 36 bc f8 e7 66 3c 02 b1 06 3b ee 0d 87 bc
       -0.011113348 0.014093392 0.0020552282 -0.016486134
000060 b4 6c 94 3c 6e 3d 4c bc 86 8d d6 bb 31 a2 4e 3c
       0.01811824 -0.012465818 -0.0065476326 0.012611912
000070 eb 19 98 3b ed 9a af 3a 3f 50 99 3c f8 9a b9 bb
       0.0046417615 0.0013397612 0.018715022 -0.0056642257
000080 2f f5 9b 3c 66 6a 8e 3c 89 2b b2 bc 23 a3 b2 3c
       0.019037811 0.01738472 -0.021749275 0.021806305
000090 86 05 76 3c 23 2c 4c bc 0f 6e 89 3c b3 5a 63 3c
       0.015015965 -0.012461695 0.016776113 0.013876605
0000a0 db c2 8f bc df cd a9 3b 24 88 6e 3c 23 28 8c 3c
       -0.017548969 0.0051820124 0.014558826 0.017108982
0000b0 83 6e 85 bb e8 2a c2 bb 66 2a 0e 3b f5 ce 4f 3c
       -0.004072012 -0.005925525 0.0021692752 0.01268362
0000c0 45 5a 30 3c 90 7a 3c bc 13 84 92 bc 97 1a 01 bc
       0.010763709 -0.011503831 -0.017885244 -0.007879875
0000d0 66 0c af 3b e6 20 2a bc
       0.005342054 -0.01038382

transformer_encoder.layers.0.norm1.weight f4 [54]
000000 42 01 80 3f 20 ed 7f 3f dd f2 7f 3f f3 f7 7f 3f
       1.0000384 0.999712 0.99979955 0.99987715
000010 c9 07 80 3f 00 00 80 3f 5b e5 7f 3f 10 03 80 3f
       1.0002376 1.0 0.99959344 1.0000935
000020 ec 02 80 3f 87 fd 7f 3f 8a fb 7f 3f 22 03 80 3f
       1.0000892 0.9999623 0.99993193 1.0000956
000030 7e 08 80 3f 80 06 80 3f 0e fe 7f 3f a3 ef 7f 3f
       1.0002592 1.0001984 0.9999703 0.9997503
000040 4f 07 80 3f fc f2 7f 3f 44 fd 7f 3f 3d 06 80 3f
       1.000223 0.9998014 0.9999583 1.0001904
000050 10 f5 7f 3f ec 01 80 3f 90 ee 7f 3f ea 08 80 3f
       0.9998331 1.0000587 0.9997339 1.000272
000060 ef fc 7f 3f bc 05 80 3f c3 04 80 3f 72 f4 7f 3f
       0.9999532 1.000175 1.0001453 0.9998237
000070 03 0f 80 3f 5c 00 80 3f 85 06 80 3f aa f5 7f 3f
       1.0004581 1.000011 1.000199 0.9998423
000080 c3 fb 7f 3f 44 0b 80 3f e6 09 80 3f bd f9 7f 3f
       0.9999353 1.0003438 1.0003021 0.99990445
000090 4e 02 80 3f e8 02 80 3f 23 0e 80 3f bf 01 80 3f
       1.0000703 1.0000887 1.0004314 1.0000533
0000a0 70 00 80 3f 04 ee 7f 3f 79 f0 7f 3f 01 01 80 3f
       1.0000134 0.9997256 0.9997631 1.0000306
0000b0 f7 ff 7f 3f 40 0f 80 3f 45 fd 7f 3f 7d f0 7f 3f
       0.99999946 1.0004654 0.99995834 0.9997633
0000c0 34 f1 7f 3f ee 0e 80 3f c6 02 80 3f 5f 00 80 3f
       0.9997742 1.0004556 1.0000846 1.0000113
0000d0 f0 03 80 3f b2 ee 7f 3f
       1.0001202 0.99973595

transformer_encoder.layers.0.norm1.bias f4 [54]
000000 6a 7e 22 b9 85 20 18 38 63 6e e3 b7 ae 0f 2d b9
       -0.00015496617 3.626991e-05 -2.7111912e-05 -0.00016504407
000010 5e a1 bc 38 a2 0d 5c 38 d7 a4 08 b9 e1 75 c9 38
       8.9945956e-05 5.2464784e-05 -0.00013031378 9.6063835e-05
000020 df e2 f9 b7 79 d6 4a b6 27 13 0c b9 a4 01 dd 38
       -2.9788758e-05 -3.0225185e-06 -0.00013358575 0.00010538407
000030 21 36 a0 37 b9 94 6a 39 66 2c 2e b9 43 8a fd b8
       1.9098692e-05 0.00022371383 -0.00016610473 -0.00012089733
000040 49 36 08 b7 ee 76 e0 b7 ab 84 9e 38 af 77 03 38
       -8.118871e-06 -2.6758262e-05 7.5587384e-05 3.1344298e-05
000050 0c d8 d2 b8 22 67 00 b9 94 f2 1e b8 e2 24 47 b8
       -0.00010053822 -0.00012245451 -3.7896054e-05 -4.7479647e-05
000060 b9 3e 2d b9 5b 68 c3 b8 c7 f3 5a 39 02 3e 98 37
       -0.00016521932 -9.317762e-05 0.00020880914 1.8148687e-05
000070 4c 2d d3 b9 51 06 2e b9 a4 66 9b 39 5a 0b a9 35
       -0.00040278805 -0.00016596286 0.00029640377 1.2594785e-06
000080 c8 d2 2c b9 b8 56 bd b9 48 d4 b7 b8 dc ea 3d b8
       -0.0001648172 -0.000361135 -8.7656605e-05 -4.527984e-05
000090 4a 2b 30 39 34 42 a3 b8 1c 46 76 39 64 bd 1f b9
       0.00016800794 -7.784777e-05 0.00023486506 -0.00015233975
0000a0 fe f1 8d 38 e9 b1 ae 38 f3 0f c7 38 93 f2 86 39
       6.7684785e-05 8.330105e-05 9.49203e-05 0.00025739204
0000b0 5d 3b ca b8 83 25 dd 39 b4 f5 32 37 bd 49 cf 38
       -9.643168e-05 0.00042180353 1.0666834e-05 9.884264e-05
0000c0 33 bf bf b8 f3 3f 04 3a 41 4d 8f b8 58 89 1a 39
       -9.143203e-05 0.00050449296 -6.833161e-05 0.00014737749
0000d0 34 68 3e 38 f3 21 3c 38
       4.5396577e-05 4.485431e-05

transformer_encoder.layers.0.norm2.weight f4 [54]
000000 76 f6 7f 3f 28 e9 7f 3f 5c ef 7f 3f 0b fb 7f 3f
       0.99985445 0.99965143 0.9997461 0.99992436
000010 7b 05 80 3f e6 f7 7f 3f 5c df 7f 3f 64 03 80 3f
       1.0001673 0.9998764 0.99950194 1.0001035
000020 37 f7 7f 3f 94 f5 7f 3f 1d f9 7f 3f e7 01 80 3f
       0.99986595 0.999841 0.9998949 1.000058
000030 e3 08 80 3f 2b 01 80 3f d0 f6 7f 3f 05 f4 7f 3f
       1.0002712 1.0000356 0.9998598 0.9998172
000040 1f 0d 80 3f 87 ee 7f 3f ac f1 7f 3f 6b 00 80 3f
       1.0004004 0.9997334 0.99978137 1.0000128
000050 08 f5 7f 3f 77 f6 7f 3f 57 ec 7f 3f 9b 06 80 3f
       0.99983263 0.9998545 0.9997 1.0002016
000060 0c ee 7f 3f e2 04 80 3f 2a fe 7f 3f b8 f0 7f 3f
       0.99972606 1.000149 0.999972 0.9997668
000070 3e f7 7f 3f c8 f1 7f 3f 0e f8 7f 3f 75 ef 7f 3f
       0.99986637 0.99978304 0.99987876 0.9997476
000080 69 f7 7f 3f 5a f7 7f 3f 00 07 80 3f 80 f1 7f 3f
       0.9998689 0.99986804 1.0002136 0.99977875
000090 28 00 80 3f e0 00 80 3f 75 06 80 3f 18 01 80 3f
       1.0000048 1.0000267 1.000197 1.0000334
0000a0 f9 fd 7f 3f 12 ed 7f 3f 59 f0 7f 3f 70 ee 7f 3f
       0.99996907 0.99971116 0.99976116 0.999732
0000b0 9f 00 80 3f c8 fb 7f 3f 20 f4 7f 3f 9e ef 7f 3f
       1.000019 0.9999356 0.9998188 0.99975
0000c0 9b ec 7f 3f 45 02 80 3f 78 fe 7f 3f ce f7 7f 3f
       0.99970406 1.0000693 0.99997663 0.99987495
0000d0 ca 00 80 3f 7f ec 7f 3f
       1.0000241 0.9997024

transformer_encoder.layers.0.norm2.bias f4 [54]
000000 22 04 94 b8 05 00 94 38 a4 fc 93 b8 99 07 94 b8
       -7.05796e-05 7.0571936e-05 -7.056564e-05 -7.058605e-05
000010 cc 0d 94 38 77 02 94 b8 9a fe 93 b8 fd 0b 94 38
       7.05976e-05 -7.057649e-05 -7.0569295e-05 7.059423e-05
000020 a2 fa 93 b8 de 03 94 b8 f7 04 94 b8 53 0a 94 38
       -7.05619e-05 -7.05791e-05 -7.058115e-05 7.059113e-05
000030 ea 15 94 38 e5 0b 94 38 96 04 94 b8 38 ff 93 b8
       7.061272e-05 7.0594055e-05 -7.058044e-05 -7.0570444e-05
000040 6c 72 95 38 86 f3 93 b8 30 fa 93 b8 ed 04 94 38
       7.1261864e-05 -7.054866e-05 -7.056107e-05 7.0581074e-05
000050 06 00 94 b8 30 e7 93 38 eb fe 93 b8 8e 19 94 b8
       -7.057194e-05 7.052568e-05 -7.0569884e-05 -7.06195e-05
000060 cc fb 93 b8 4d 12 94 b8 fc 07 94 38 c5 02 94 38
       -7.056407e-05 -7.060599e-05 7.058677e-05 7.057706e-05
000070 79 dd 93 38 c7 fc 93 38 f3 dd 93 b8 a3 02 94 38
       7.050759e-05 7.05659e-05 -7.0508475e-05 7.057681e-05
000080 6a 06 94 b8 49 1a 91 38 70 19 94 b8 58 fe 93 38
       -7.058385e-05 6.919035e-05 -7.061928e-05 7.0568814e-05
000090 71 09 94 38 ee 08 94 b8 46 2e 94 38 d2 09 94 b8
       7.0589485e-05 -7.058853e-05 7.065809e-05 -7.059019e-05
0000a0 27 07 94 38 d9 fc 93 38 27 04 94 38 75 f8 93 38
       7.058522e-05 7.056603e-05 7.0579634e-05 7.055785e-05
0000b0 39 09 94 b8 17 04 94 38 71 00 94 38 4f 01 94 38
       -7.058908e-05 7.057952e-05 7.057272e-05 7.057434e-05
0000c0 80 02 94 b8 23 0f 94 b8 b5 06 94 b8 40 04 94 38
       -7.0576556e-05 -7.0600094e-05 -7.058439e-05 7.0579816e-05
0000d0 71 0e 94 38 a9 fd 93 38
       7.05988e-05 7.056754e-05
